node {
  name: "global_step"
  op: "Variable"
  attr {
    key: "_output_shapes"
    value {
      list {
        shape {
        }
      }
    }
  }
  attr {
    key: "container"
    value {
      s: ""
    }
  }
  attr {
    key: "dtype"
    value {
      type: DT_INT64
    }
  }
  attr {
    key: "shape"
    value {
      shape {
      }
    }
  }
  attr {
    key: "shared_name"
    value {
      s: ""
    }
  }
}
node {
  name: "global_step/Initializer/zeros"
  op: "Const"
  attr {
    key: "_class"
    value {
      list {
        s: "loc:@global_step"
      }
    }
  }
  attr {
    key: "_output_shapes"
    value {
      list {
        shape {
        }
      }
    }
  }
  attr {
    key: "dtype"
    value {
      type: DT_INT64
    }
  }
  attr {
    key: "value"
    value {
      tensor {
        dtype: DT_INT64
        tensor_shape {
        }
        int64_val: 0
      }
    }
  }
}
node {
  name: "global_step/Assign"
  op: "Assign"
  input: "global_step"
  input: "global_step/Initializer/zeros"
  attr {
    key: "T"
    value {
      type: DT_INT64
    }
  }
  attr {
    key: "_class"
    value {
      list {
        s: "loc:@global_step"
      }
    }
  }
  attr {
    key: "_output_shapes"
    value {
      list {
        shape {
        }
      }
    }
  }
  attr {
    key: "use_locking"
    value {
      b: true
    }
  }
  attr {
    key: "validate_shape"
    value {
      b: true
    }
  }
}
node {
  name: "global_step/read"
  op: "Identity"
  input: "global_step"
  attr {
    key: "T"
    value {
      type: DT_INT64
    }
  }
  attr {
    key: "_class"
    value {
      list {
        s: "loc:@global_step"
      }
    }
  }
  attr {
    key: "_output_shapes"
    value {
      list {
        shape {
        }
      }
    }
  }
}
node {
  name: "Const"
  op: "Const"
  attr {
    key: "_output_shapes"
    value {
      list {
        shape {
          dim {
            size: 1660
          }
        }
      }
    }
  }
  attr {
    key: "dtype"
    value {
      type: DT_FLOAT
    }
  }
  attr {
    key: "value"
    value {
      tensor {
        dtype: DT_FLOAT
        tensor_shape {
          dim {
            size: 1660
          }
        }
        tensor_content: "…"
      }
    }
  }
}
node {
  name: "Const_1"
  op: "Const"
  attr {
    key: "_output_shapes"
    value {
      list {
        shape {
          dim {
            size: 1660
          }
        }
      }
    }
  }
  attr {
    key: "dtype"
    value {
      type: DT_FLOAT
    }
  }
  attr {
    key: "value"
    value {
      tensor {
        dtype: DT_FLOAT
        tensor_shape {
          dim {
            size: 1660
          }
        }
        tensor_content: "…"
      }
    }
  }
}
node {
  name: "Const_2"
  op: "Const"
  attr {
    key: "_output_shapes"
    value {
      list {
        shape {
          dim {
            size: 1660
          }
        }
      }
    }
  }
  attr {
    key: "dtype"
    value {
      type: DT_FLOAT
    }
  }
  attr {
    key: "value"
    value {
      tensor {
        dtype: DT_FLOAT
        tensor_shape {
          dim {
            size: 1660
          }
        }
        tensor_content: "…"
      }
    }
  }
}
node {
  name: "SparseTensor/indices"
  op: "Const"
  attr {
    key: "_output_shapes"
    value {
      list {
        shape {
          dim {
            size: 1660
          }
          dim {
            size: 2
          }
        }
      }
    }
  }
  attr {
    key: "dtype"
    value {
      type: DT_INT64
    }
  }
  attr {
    key: "value"
    value {
      tensor {
        dtype: DT_INT64
        tensor_shape {
          dim {
            size: 1660
          }
          dim {
            size: 2
          }
        }
        tensor_content: "…"
      }
    }
  }
}
node {
  name: "SparseTensor/values"
  op: "Const"
  attr {
    key: "_output_shapes"
    value {
      list {
        shape {
          dim {
            size: 1660
          }
        }
      }
    }
  }
  attr {
    key: "dtype"
    value {
      type: DT_STRING
    }
  }
  attr {
    key: "value"
    value {
      tensor {
        dtype: DT_STRING
        tensor_shape {
          dim {
            size: 1660
          }
        }
        string_val: "95032"
        string_val: "95002"
        string_val: "94066"
        string_val: "95391"
        string_val: "94517"
        string_val: "95014"
        string_val: "94027"
        string_val: "94521"
        string_val: "94508"
        string_val: "89431"
        string_val: "95130"
        string_val: "94566"
        string_val: "94595"
        string_val: "94901"
        string_val: "95037"
        string_val: "94599"
        string_val: "94515"
        string_val: "95425"
        string_val: "94920"
        string_val: "95476"
        string_val: "95422"
        string_val: "94131"
        string_val: "94102"
        string_val: "95020"
        string_val: "95136"
        string_val: "95425"
        string_val: "94549"
        string_val: "95139"
        string_val: "94601"
        string_val: "94030"
        string_val: "94509"
        string_val: "95134"
        string_val: "97701"
        string_val: "94582"
        string_val: "94513"
        string_val: "95134"
        string_val: "95121"
        string_val: "94608"
        string_val: "94401"
        string_val: "94710"
        string_val: "94025"
        string_val: "94107"
        string_val: "94080"
        string_val: "95110"
        string_val: "89431"
        string_val: "94089"
        string_val: "94402"
        string_val: "94022"
        string_val: "94806"
        string_val: "94920"
        string_val: "95148"
        string_val: "95131"
        string_val: "89431"
        string_val: "95037"
        string_val: "94404"
        string_val: "94105"
        string_val: "94303"
        string_val: "94513"
        string_val: "94124"
        string_val: "94506"
        string_val: "95110"
        string_val: "94558"
        string_val: "95124"
        string_val: "95118"
        string_val: "97701"
        string_val: "94541"
        string_val: "95409"
        string_val: "95131"
        string_val: "94102"
        string_val: "95409"
        string_val: "95110"
        string_val: "94541"
        string_val: "94020"
        string_val: "94038"
        string_val: "94930"
        string_val: "94621"
        string_val: "95118"
        string_val: "95476"
        string_val: "95123"
        string_val: "94010"
        string_val: "95419"
        string_val: "94070"
        string_val: "94010"
        string_val: "95148"
        string_val: "95409"
        string_val: "95446"
        string_val: "94806"
        string_val: "94070"
        string_val: "95126"
        string_val: "94089"
        string_val: "95050"
        string_val: "95377"
        string_val: "89431"
        string_val: "95666"
        string_val: "95118"
        string_val: "95032"
        string_val: "95472"
        string_val: "94509"
        string_val: "46123"
        string_val: "94939"
        string_val: "90266"
        string_val: "94080"
        string_val: "94928"
        string_val: "94019"
        string_val: "95112"
        string_val: "94014"
        string_val: "94553"
        string_val: "95111"
        string_val: "97701"
        string_val: "95116"
        string_val: "94801"
        string_val: "94089"
        string_val: "94010"
        string_val: "94103"
        string_val: "94525"
        string_val: "94531"
        string_val: "94005"
        string_val: "95377"
        string_val: "94509"
        string_val: "95023"
        string_val: "94105"
        string_val: "94531"
        string_val: "94970"
        string_val: "95131"
        string_val: "94605"
        string_val: "94121"
        string_val: "94027"
        string_val: "94525"
        string_val: "94606"
        string_val: "94086"
        string_val: "95138"
        string_val: "94061"
        string_val: "94022"
        string_val: "95123"
        string_val: "94019"
        string_val: "95037"
        string_val: "94028"
        string_val: "94901"
        string_val: "95110"
        string_val: "21401"
        string_val: "95133"
        string_val: "94107"
        string_val: "94545"
        string_val: "95020"
        string_val: "95666"
        string_val: "95128"
        string_val: "95035"
        string_val: "94014"
        string_val: "94551"
        string_val: "94114"
        string_val: "94087"
        string_val: "94502"
        string_val: "97701"
        string_val: "95128"
        string_val: "95122"
        string_val: "95125"
        string_val: "94970"
        string_val: "95442"
        string_val: "94566"
        string_val: "95123"
        string_val: "94610"
        string_val: "94806"
        string_val: "94949"
        string_val: "94513"
        string_val: "94608"
        string_val: "97701"
        string_val: "94945"
        string_val: "94043"
        string_val: "89431"
        string_val: "94089"
        string_val: "94115"
        string_val: "94549"
        string_val: "94105"
        string_val: "94567"
        string_val: "94806"
        string_val: "94941"
        string_val: "94601"
        string_val: "94025"
        string_val: "95134"
        string_val: "94577"
        string_val: "94506"
        string_val: "94941"
        string_val: "95133"
        string_val: "94920"
        string_val: "95123"
        string_val: "95123"
        string_val: "95116"
        string_val: "95131"
        string_val: "94507"
        string_val: "94582"
        string_val: "94547"
        string_val: "95111"
        string_val: "94804"
        string_val: "95650"
        string_val: "95035"
        string_val: "21401"
        string_val: "94804"
        string_val: "95465"
        string_val: "94541"
        string_val: "94121"
        string_val: "95472"
        string_val: "95628"
        string_val: "95131"
        string_val: "94303"
        string_val: "94027"
        string_val: "94107"
        string_val: "89431"
        string_val: "94025"
        string_val: "90266"
        string_val: "95030"
        string_val: "95422"
        string_val: "94582"
        string_val: "94521"
        string_val: "94018"
        string_val: "97701"
        string_val: "90266"
        string_val: "95117"
        string_val: "94121"
        string_val: "95409"
        string_val: "94558"
        string_val: "95377"
        string_val: "95030"
        string_val: "93292"
        string_val: "95131"
        string_val: "94541"
        string_val: "94301"
        string_val: "97701"
        string_val: "95666"
        string_val: "94583"
        string_val: "94404"
        string_val: "94929"
        string_val: "94618"
        string_val: "95116"
        string_val: "95138"
        string_val: "94538"
        string_val: "95023"
        string_val: "94596"
        string_val: "95445"
        string_val: "94703"
        string_val: "94573"
        string_val: "94965"
        string_val: "94513"
        string_val: "95135"
        string_val: "94587"
        string_val: "94112"
        string_val: "95123"
        string_val: "95070"
        string_val: "94544"
        string_val: "94044"
        string_val: "95134"
        string_val: "95127"
        string_val: "46123"
        string_val: "95132"
        string_val: "95111"
        string_val: "94061"
        string_val: "94110"
        string_val: "95112"
        string_val: "94115"
        string_val: "94517"
        string_val: "94806"
        string_val: "95127"
        string_val: "94501"
        string_val: "94965"
        string_val: "95008"
        string_val: "90266"
        string_val: "94513"
        string_val: "21401"
        string_val: "94806"
        string_val: "95122"
        string_val: "94612"
        string_val: "46123"
        string_val: "94607"
        string_val: "94041"
        string_val: "94609"
        string_val: "95377"
        string_val: "90266"
        string_val: "94102"
        string_val: "94957"
        string_val: "95442"
        string_val: "94965"
        string_val: "46123"
        string_val: "94019"
        string_val: "95046"
        string_val: "94025"
        string_val: "94022"
        string_val: "97701"
        string_val: "94015"
        string_val: "95422"
        string_val: "95130"
        string_val: "93292"
        string_val: "94102"
        string_val: "95111"
        string_val: "95032"
        string_val: "94521"
        string_val: "94949"
        string_val: "95125"
        string_val: "94402"
        string_val: "95377"
        string_val: "94804"
        string_val: "95037"
        string_val: "95117"
        string_val: "94115"
        string_val: "94705"
        string_val: "94521"
        string_val: "95136"
        string_val: "94804"
        string_val: "94560"
        string_val: "95650"
        string_val: "94025"
        string_val: "94107"
        string_val: "94558"
        string_val: "90266"
        string_val: "94005"
        string_val: "94552"
        string_val: "95125"
        string_val: "94086"
        string_val: "95111"
        string_val: "46123"
        string_val: "95014"
        string_val: "94402"
        string_val: "94551"
        string_val: "94551"
        string_val: "94015"
        string_val: "95376"
        string_val: "94530"
        string_val: "94542"
        string_val: "94028"
        string_val: "46123"
        string_val: "94607"
        string_val: "94567"
        string_val: "94904"
        string_val: "94611"
        string_val: "94112"
        string_val: "94025"
        string_val: "95023"
        string_val: "94960"
        string_val: "94509"
        string_val: "94044"
        string_val: "94107"
        string_val: "94945"
        string_val: "94801"
        string_val: "94553"
        string_val: "94122"
        string_val: "95032"
        string_val: "94703"
        string_val: "94611"
        string_val: "94601"
        string_val: "94041"
        string_val: "94061"
        string_val: "94605"
        string_val: "95122"
        string_val: "94598"
        string_val: "94010"
        string_val: "89509"
        string_val: "90266"
        string_val: "95035"
        string_val: "94027"
        string_val: "94025"
        string_val: "95132"
        string_val: "95124"
        string_val: "94553"
        string_val: "94105"
        string_val: "95445"
        string_val: "95127"
        string_val: "94022"
        string_val: "94611"
        string_val: "94027"
        string_val: "94526"
        string_val: "89431"
        string_val: "94520"
        string_val: "94563"
        string_val: "94558"
        string_val: "95111"
        string_val: "21401"
        string_val: "94402"
        string_val: "94928"
        string_val: "94544"
        string_val: "95136"
        string_val: "95070"
        string_val: "94116"
        string_val: "94303"
        string_val: "94541"
        string_val: "95650"
        string_val: "95118"
        string_val: "94544"
        string_val: "94402"
        string_val: "95111"
        string_val: "46123"
        string_val: "94946"
        string_val: "94595"
        string_val: "94941"
        string_val: "94530"
        string_val: "95125"
        string_val: "94114"
        string_val: "94928"
        string_val: "94108"
        string_val: "94924"
        string_val: "95461"
        string_val: "94043"
        string_val: "95123"
        string_val: "94903"
        string_val: "94538"
        string_val: "95409"
        string_val: "94599"
        string_val: "94941"
        string_val: "94596"
        string_val: "95409"
        string_val: "94509"
        string_val: "94531"
        string_val: "94022"
        string_val: "94121"
        string_val: "94607"
        string_val: "94518"
        string_val: "95133"
        string_val: "95120"
        string_val: "94134"
        string_val: "94901"
        string_val: "95054"
        string_val: "94024"
        string_val: "46123"
        string_val: "95122"
        string_val: "94037"
        string_val: "94550"
        string_val: "95628"
        string_val: "46112"
        string_val: "95422"
        string_val: "95118"
        string_val: "95376"
        string_val: "46123"
        string_val: "95037"
        string_val: "94117"
        string_val: "95123"
        string_val: "94525"
        string_val: "94502"
        string_val: "94028"
        string_val: "94582"
        string_val: "94901"
        string_val: "94541"
        string_val: "94038"
        string_val: "94707"
        string_val: "94134"
        string_val: "95023"
        string_val: "94115"
        string_val: "95148"
        string_val: "94526"
        string_val: "94014"
        string_val: "94087"
        string_val: "95133"
        string_val: "94038"
        string_val: "94404"
        string_val: "94402"
        string_val: "94131"
        string_val: "94523"
        string_val: "94041"
        string_val: "94965"
        string_val: "95666"
        string_val: "95118"
        string_val: "94572"
        string_val: "94605"
        string_val: "95127"
        string_val: "94618"
        string_val: "94114"
        string_val: "94089"
        string_val: "94041"
        string_val: "95037"
        string_val: "95127"
        string_val: "94105"
        string_val: "94065"
        string_val: "21401"
        string_val: "94037"
        string_val: "94582"
        string_val: "95120"
        string_val: "94121"
        string_val: "94526"
        string_val: "95476"
        string_val: "94070"
        string_val: "95046"
        string_val: "95120"
        string_val: "94301"
        string_val: "95110"
        string_val: "21401"
        string_val: "95008"
        string_val: "94513"
        string_val: "94301"
        string_val: "94598"
        string_val: "94041"
        string_val: "94553"
        string_val: "95138"
        string_val: "94536"
        string_val: "95472"
        string_val: "94925"
        string_val: "94924"
        string_val: "94947"
        string_val: "94070"
        string_val: "97701"
        string_val: "94109"
        string_val: "94030"
        string_val: "97701"
        string_val: "94621"
        string_val: "94552"
        string_val: "97701"
        string_val: "94904"
        string_val: "46123"
        string_val: "95020"
        string_val: "95050"
        string_val: "95123"
        string_val: "94108"
        string_val: "95628"
        string_val: "94070"
        string_val: "94108"
        string_val: "94520"
        string_val: "95445"
        string_val: "94102"
        string_val: "21401"
        string_val: "94546"
        string_val: "95116"
        string_val: "94022"
        string_val: "94555"
        string_val: "94521"
        string_val: "94929"
        string_val: "95111"
        string_val: "95037"
        string_val: "94903"
        string_val: "94599"
        string_val: "94109"
        string_val: "95127"
        string_val: "94542"
        string_val: "95132"
        string_val: "94022"
        string_val: "94402"
        string_val: "94901"
        string_val: "94019"
        string_val: "89431"
        string_val: "95070"
        string_val: "94062"
        string_val: "95120"
        string_val: "94025"
        string_val: "94124"
        string_val: "94515"
        string_val: "94062"
        string_val: "93292"
        string_val: "94965"
        string_val: "94517"
        string_val: "94553"
        string_val: "95111"
        string_val: "95422"
        string_val: "94105"
        string_val: "94523"
        string_val: "94553"
        string_val: "95650"
        string_val: "94086"
        string_val: "94070"
        string_val: "95650"
        string_val: "94005"
        string_val: "94928"
        string_val: "94509"
        string_val: "94924"
        string_val: "94552"
        string_val: "90266"
        string_val: "95050"
        string_val: "21401"
        string_val: "94062"
        string_val: "94530"
        string_val: "94102"
        string_val: "95008"
        string_val: "94606"
        string_val: "95121"
        string_val: "95118"
        string_val: "94583"
        string_val: "94109"
        string_val: "89431"
        string_val: "95111"
        string_val: "94133"
        string_val: "94577"
        string_val: "90266"
        string_val: "94022"
        string_val: "94002"
        string_val: "95425"
        string_val: "94501"
        string_val: "94087"
        string_val: "94552"
        string_val: "94121"
        string_val: "94024"
        string_val: "94595"
        string_val: "21401"
        string_val: "95008"
        string_val: "95148"
        string_val: "94545"
        string_val: "94513"
        string_val: "95014"
        string_val: "94108"
        string_val: "90266"
        string_val: "94705"
        string_val: "95133"
        string_val: "95127"
        string_val: "94965"
        string_val: "93292"
        string_val: "95445"
        string_val: "94027"
        string_val: "94608"
        string_val: "94132"
        string_val: "95123"
        string_val: "94025"
        string_val: "21401"
        string_val: "94605"
        string_val: "94605"
        string_val: "95422"
        string_val: "94038"
        string_val: "95117"
        string_val: "95134"
        string_val: "94563"
        string_val: "94124"
        string_val: "94086"
        string_val: "94002"
        string_val: "94117"
        string_val: "95070"
        string_val: "94517"
        string_val: "95421"
        string_val: "94521"
        string_val: "94513"
        string_val: "94605"
        string_val: "94538"
        string_val: "94105"
        string_val: "94062"
        string_val: "94957"
        string_val: "95130"
        string_val: "94517"
        string_val: "95120"
        string_val: "94541"
        string_val: "94551"
        string_val: "94103"
        string_val: "95128"
        string_val: "95136"
        string_val: "94087"
        string_val: "94521"
        string_val: "94102"
        string_val: "93292"
        string_val: "94303"
        string_val: "94404"
        string_val: "94301"
        string_val: "95461"
        string_val: "95127"
        string_val: "95628"
        string_val: "94134"
        string_val: "95445"
        string_val: "95121"
        string_val: "94553"
        string_val: "94566"
        string_val: "94089"
        string_val: "94567"
        string_val: "95127"
        string_val: "95050"
        string_val: "94803"
        string_val: "94945"
        string_val: "95391"
        string_val: "94513"
        string_val: "95111"
        string_val: "94553"
        string_val: "95127"
        string_val: "95409"
        string_val: "94530"
        string_val: "94123"
        string_val: "95439"
        string_val: "94062"
        string_val: "21401"
        string_val: "94301"
        string_val: "95119"
        string_val: "95136"
        string_val: "94611"
        string_val: "94599"
        string_val: "94089"
        string_val: "95070"
        string_val: "21401"
        string_val: "94509"
        string_val: "94965"
        string_val: "94702"
        string_val: "94566"
        string_val: "94085"
        string_val: "94043"
        string_val: "94804"
        string_val: "94103"
        string_val: "95112"
        string_val: "95666"
        string_val: "94123"
        string_val: "94118"
        string_val: "97701"
        string_val: "95116"
        string_val: "94028"
        string_val: "21401"
        string_val: "94010"
        string_val: "94110"
        string_val: "95134"
        string_val: "95123"
        string_val: "95020"
        string_val: "94509"
        string_val: "21401"
        string_val: "95014"
        string_val: "94563"
        string_val: "94558"
        string_val: "95131"
        string_val: "95445"
        string_val: "94086"
        string_val: "95116"
        string_val: "94602"
        string_val: "94403"
        string_val: "94564"
        string_val: "94123"
        string_val: "94521"
        string_val: "94066"
        string_val: "97701"
        string_val: "94577"
        string_val: "95123"
        string_val: "94536"
        string_val: "95409"
        string_val: "95476"
        string_val: "21401"
        string_val: "95035"
        string_val: "95112"
        string_val: "94952"
        string_val: "94086"
        string_val: "94404"
        string_val: "94526"
        string_val: "94945"
        string_val: "94965"
        string_val: "95123"
        string_val: "95128"
        string_val: "94114"
        string_val: "94595"
        string_val: "94087"
        string_val: "94804"
        string_val: "94526"
        string_val: "94523"
        string_val: "94587"
        string_val: "94582"
        string_val: "95472"
        string_val: "94538"
        string_val: "95446"
        string_val: "46123"
        string_val: "95030"
        string_val: "95125"
        string_val: "94086"
        string_val: "94513"
        string_val: "94127"
        string_val: "94027"
        string_val: "94507"
        string_val: "94061"
        string_val: "94014"
        string_val: "95442"
        string_val: "94541"
        string_val: "95032"
        string_val: "94303"
        string_val: "95125"
        string_val: "95123"
        string_val: "94127"
        string_val: "94022"
        string_val: "94566"
        string_val: "94945"
        string_val: "94521"
        string_val: "94806"
        string_val: "94303"
        string_val: "94063"
        string_val: "94595"
        string_val: "94109"
        string_val: "95124"
        string_val: "94506"
        string_val: "94536"
        string_val: "89431"
        string_val: "21401"
        string_val: "95134"
        string_val: "94560"
        string_val: "95121"
        string_val: "94025"
        string_val: "95070"
        string_val: "94102"
        string_val: "95138"
        string_val: "94518"
        string_val: "95133"
        string_val: "94596"
        string_val: "94928"
        string_val: "94806"
        string_val: "94551"
        string_val: "94541"
        string_val: "94526"
        string_val: "94518"
        string_val: "95121"
        string_val: "21401"
        string_val: "90266"
        string_val: "94560"
        string_val: "94021"
        string_val: "94109"
        string_val: "95020"
        string_val: "94521"
        string_val: "94513"
        string_val: "94904"
        string_val: "94107"
        string_val: "95132"
        string_val: "94041"
        string_val: "94112"
        string_val: "95136"
        string_val: "94019"
        string_val: "94123"
        string_val: "94608"
        string_val: "97701"
        string_val: "95111"
        string_val: "94563"
        string_val: "21401"
        string_val: "94547"
        string_val: "95131"
        string_val: "94806"
        string_val: "95123"
        string_val: "94521"
        string_val: "94611"
        string_val: "46123"
        string_val: "94806"
        string_val: "94063"
        string_val: "95129"
        string_val: "95008"
        string_val: "46123"
        string_val: "94801"
        string_val: "94517"
        string_val: "94513"
        string_val: "94521"
        string_val: "94553"
        string_val: "95131"
        string_val: "94105"
        string_val: "94124"
        string_val: "21401"
        string_val: "94015"
        string_val: "97701"
        string_val: "95112"
        string_val: "46123"
        string_val: "94806"
        string_val: "46123"
        string_val: "46123"
        string_val: "94941"
        string_val: "95046"
        string_val: "95135"
        string_val: "89431"
        string_val: "95125"
        string_val: "94545"
        string_val: "94105"
        string_val: "95650"
        string_val: "94608"
        string_val: "94089"
        string_val: "94566"
        string_val: "94806"
        string_val: "97701"
        string_val: "94703"
        string_val: "94121"
        string_val: "90266"
        string_val: "94021"
        string_val: "94609"
        string_val: "94063"
        string_val: "94061"
        string_val: "94521"
        string_val: "94022"
        string_val: "94107"
        string_val: "94901"
        string_val: "94941"
        string_val: "94086"
        string_val: "21401"
        string_val: "94619"
        string_val: "94904"
        string_val: "94518"
        string_val: "95436"
        string_val: "94578"
        string_val: "94306"
        string_val: "95138"
        string_val: "94549"
        string_val: "94103"
        string_val: "94105"
        string_val: "94063"
        string_val: "94107"
        string_val: "94117"
        string_val: "95050"
        string_val: "95138"
        string_val: "95125"
        string_val: "95148"
        string_val: "21401"
        string_val: "94530"
        string_val: "95446"
        string_val: "94549"
        string_val: "95125"
        string_val: "89431"
        string_val: "90266"
        string_val: "95123"
        string_val: "94520"
        string_val: "94105"
        string_val: "94063"
        string_val: "94519"
        string_val: "95131"
        string_val: "95127"
        string_val: "94583"
        string_val: "94105"
        string_val: "94517"
        string_val: "46123"
        string_val: "95628"
        string_val: "94118"
        string_val: "94949"
        string_val: "95442"
        string_val: "94563"
        string_val: "94109"
        string_val: "94089"
        string_val: "94930"
        string_val: "94061"
        string_val: "95133"
        string_val: "94611"
        string_val: "94538"
        string_val: "95138"
        string_val: "94544"
        string_val: "95650"
        string_val: "94545"
        string_val: "89431"
        string_val: "94027"
        string_val: "95121"
        string_val: "94002"
        string_val: "94573"
        string_val: "46123"
        string_val: "94089"
        string_val: "95134"
        string_val: "95127"
        string_val: "94945"
        string_val: "95442"
        string_val: "95134"
        string_val: "94619"
        string_val: "94107"
        string_val: "95135"
        string_val: "95125"
        string_val: "94580"
        string_val: "95442"
        string_val: "94107"
        string_val: "94553"
        string_val: "95030"
        string_val: "95117"
        string_val: "94551"
        string_val: "94970"
        string_val: "94941"
        string_val: "94105"
        string_val: "94930"
        string_val: "95465"
        string_val: "94517"
        string_val: "95123"
        string_val: "95023"
        string_val: "94304"
        string_val: "94603"
        string_val: "95442"
        string_val: "94080"
        string_val: "95436"
        string_val: "95422"
        string_val: "94404"
        string_val: "94089"
        string_val: "95136"
        string_val: "94303"
        string_val: "95008"
        string_val: "95121"
        string_val: "94107"
        string_val: "94521"
        string_val: "94947"
        string_val: "94553"
        string_val: "95425"
        string_val: "95110"
        string_val: "94526"
        string_val: "94925"
        string_val: "95377"
        string_val: "94015"
        string_val: "94043"
        string_val: "95121"
        string_val: "97701"
        string_val: "94606"
        string_val: "95125"
        string_val: "95125"
        string_val: "94110"
        string_val: "94109"
        string_val: "94117"
        string_val: "94024"
        string_val: "95409"
        string_val: "94605"
        string_val: "94939"
        string_val: "94806"
        string_val: "94103"
        string_val: "94805"
        string_val: "94089"
        string_val: "94548"
        string_val: "94806"
        string_val: "95148"
        string_val: "94553"
        string_val: "94019"
        string_val: "94002"
        string_val: "94949"
        string_val: "95130"
        string_val: "95032"
        string_val: "94526"
        string_val: "94022"
        string_val: "95127"
        string_val: "94404"
        string_val: "94515"
        string_val: "94028"
        string_val: "94920"
        string_val: "95134"
        string_val: "94957"
        string_val: "94598"
        string_val: "95125"
        string_val: "94507"
        string_val: "21401"
        string_val: "95122"
        string_val: "94556"
        string_val: "94105"
        string_val: "94509"
        string_val: "94551"
        string_val: "95121"
        string_val: "94121"
        string_val: "21401"
        string_val: "94549"
        string_val: "95441"
        string_val: "95112"
        string_val: "94127"
        string_val: "94547"
        string_val: "21401"
        string_val: "94065"
        string_val: "94515"
        string_val: "94117"
        string_val: "94080"
        string_val: "94404"
        string_val: "94306"
        string_val: "95014"
        string_val: "94607"
        string_val: "94513"
        string_val: "94086"
        string_val: "94041"
        string_val: "94545"
        string_val: "97701"
        string_val: "94105"
        string_val: "95425"
        string_val: "95035"
        string_val: "95125"
        string_val: "94945"
        string_val: "94022"
        string_val: "95421"
        string_val: "95032"
        string_val: "95120"
        string_val: "94507"
        string_val: "95111"
        string_val: "94087"
        string_val: "94506"
        string_val: "95125"
        string_val: "94044"
        string_val: "94105"
        string_val: "95032"
        string_val: "94080"
        string_val: "95112"
        string_val: "95124"
        string_val: "94949"
        string_val: "94545"
        string_val: "94061"
        string_val: "94044"
        string_val: "95032"
        string_val: "21401"
        string_val: "94107"
        string_val: "94131"
        string_val: "95120"
        string_val: "94107"
        string_val: "95121"
        string_val: "95123"
        string_val: "95035"
        string_val: "94595"
        string_val: "94085"
        string_val: "94903"
        string_val: "94904"
        string_val: "94110"
        string_val: "94020"
        string_val: "95472"
        string_val: "94610"
        string_val: "94301"
        string_val: "95035"
        string_val: "94957"
        string_val: "95134"
        string_val: "94127"
        string_val: "95472"
        string_val: "94040"
        string_val: "46123"
        string_val: "95422"
        string_val: "95134"
        string_val: "94103"
        string_val: "94705"
        string_val: "95032"
        string_val: "95409"
        string_val: "94122"
        string_val: "95123"
        string_val: "94107"
        string_val: "94019"
        string_val: "94582"
        string_val: "95125"
        string_val: "94920"
        string_val: "95113"
        string_val: "95148"
        string_val: "94924"
        string_val: "94801"
        string_val: "94801"
        string_val: "94523"
        string_val: "94952"
        string_val: "95131"
        string_val: "94806"
        string_val: "95119"
        string_val: "94403"
        string_val: "94513"
        string_val: "94706"
        string_val: "94941"
        string_val: "94062"
        string_val: "21401"
        string_val: "94132"
        string_val: "94563"
        string_val: "95121"
        string_val: "94564"
        string_val: "95070"
        string_val: "95111"
        string_val: "95125"
        string_val: "95123"
        string_val: "94509"
        string_val: "94066"
        string_val: "94920"
        string_val: "94804"
        string_val: "95134"
        string_val: "94903"
        string_val: "95118"
        string_val: "95134"
        string_val: "94303"
        string_val: "94531"
        string_val: "94599"
        string_val: "94018"
        string_val: "95050"
        string_val: "97701"
        string_val: "94611"
        string_val: "95111"
        string_val: "94602"
        string_val: "94109"
        string_val: "94587"
        string_val: "94577"
        string_val: "95054"
        string_val: "95436"
        string_val: "95110"
        string_val: "94089"
        string_val: "94703"
        string_val: "94107"
        string_val: "95123"
        string_val: "95012"
        string_val: "94403"
        string_val: "94550"
        string_val: "46123"
        string_val: "94403"
        string_val: "94115"
        string_val: "94127"
        string_val: "94806"
        string_val: "97701"
        string_val: "94558"
        string_val: "95122"
        string_val: "94105"
        string_val: "95014"
        string_val: "95128"
        string_val: "95139"
        string_val: "94105"
        string_val: "94904"
        string_val: "94583"
        string_val: "94558"
        string_val: "94559"
        string_val: "97702"
        string_val: "95030"
        string_val: "95111"
        string_val: "94062"
        string_val: "94806"
        string_val: "95070"
        string_val: "95124"
        string_val: "94301"
        string_val: "94044"
        string_val: "94538"
        string_val: "94025"
        string_val: "94541"
        string_val: "94105"
        string_val: "94523"
        string_val: "94941"
        string_val: "94550"
        string_val: "95472"
        string_val: "94804"
        string_val: "94089"
        string_val: "94965"
        string_val: "95070"
        string_val: "94704"
        string_val: "94509"
        string_val: "95122"
        string_val: "94564"
        string_val: "94025"
        string_val: "94901"
        string_val: "94513"
        string_val: "94544"
        string_val: "94404"
        string_val: "95140"
        string_val: "94519"
        string_val: "94103"
        string_val: "94301"
        string_val: "94103"
        string_val: "94133"
        string_val: "95122"
        string_val: "94551"
        string_val: "95111"
        string_val: "94509"
        string_val: "95014"
        string_val: "95035"
        string_val: "95134"
        string_val: "94080"
        string_val: "95628"
        string_val: "94560"
        string_val: "95023"
        string_val: "94546"
        string_val: "94525"
        string_val: "94928"
        string_val: "94403"
        string_val: "95117"
        string_val: "94611"
        string_val: "95138"
        string_val: "94010"
        string_val: "94070"
        string_val: "95124"
        string_val: "95441"
        string_val: "94105"
        string_val: "94087"
        string_val: "95131"
        string_val: "94041"
        string_val: "95628"
        string_val: "95476"
        string_val: "94132"
        string_val: "95128"
        string_val: "94105"
        string_val: "94043"
        string_val: "95002"
        string_val: "97701"
        string_val: "94104"
        string_val: "94118"
        string_val: "94109"
        string_val: "95111"
        string_val: "94502"
        string_val: "94109"
        string_val: "94553"
        string_val: "21401"
        string_val: "94924"
        string_val: "94124"
        string_val: "95070"
        string_val: "94518"
        string_val: "94577"
        string_val: "94901"
        string_val: "94513"
        string_val: "95650"
        string_val: "94928"
        string_val: "95128"
        string_val: "95123"
        string_val: "94025"
        string_val: "94607"
        string_val: "94132"
        string_val: "94598"
        string_val: "93292"
        string_val: "95131"
        string_val: "94403"
        string_val: "94022"
        string_val: "94109"
        string_val: "94572"
        string_val: "94619"
        string_val: "97701"
        string_val: "94521"
        string_val: "94608"
        string_val: "94520"
        string_val: "94903"
        string_val: "94608"
        string_val: "95666"
        string_val: "94558"
        string_val: "95122"
        string_val: "95023"
        string_val: "95409"
        string_val: "95012"
        string_val: "95050"
        string_val: "94544"
        string_val: "94965"
        string_val: "94901"
        string_val: "94702"
        string_val: "94518"
        string_val: "95122"
        string_val: "95112"
        string_val: "94515"
        string_val: "94105"
        string_val: "95008"
        string_val: "94117"
        string_val: "94558"
        string_val: "95472"
        string_val: "95032"
        string_val: "94112"
        string_val: "95118"
        string_val: "95127"
        string_val: "94024"
        string_val: "94107"
        string_val: "90266"
        string_val: "94801"
        string_val: "94801"
        string_val: "94509"
        string_val: "95409"
        string_val: "94513"
        string_val: "94123"
        string_val: "94105"
        string_val: "94030"
        string_val: "95127"
        string_val: "95446"
        string_val: "94945"
        string_val: "94107"
        string_val: "95008"
        string_val: "94526"
        string_val: "94603"
        string_val: "94602"
        string_val: "94110"
        string_val: "94508"
        string_val: "94563"
        string_val: "94121"
        string_val: "94025"
        string_val: "94546"
        string_val: "95123"
        string_val: "95136"
        string_val: "95117"
        string_val: "94089"
        string_val: "94523"
        string_val: "94124"
        string_val: "95131"
        string_val: "95131"
        string_val: "94089"
        string_val: "94509"
        string_val: "94595"
        string_val: "94024"
        string_val: "94903"
        string_val: "95111"
        string_val: "95128"
        string_val: "90266"
        string_val: "94087"
        string_val: "94086"
        string_val: "21401"
        string_val: "95125"
        string_val: "95116"
        string_val: "94118"
        string_val: "94014"
        string_val: "95421"
        string_val: "94028"
        string_val: "95135"
        string_val: "95112"
        string_val: "94541"
        string_val: "95129"
        string_val: "94552"
        string_val: "94608"
        string_val: "95441"
        string_val: "95134"
        string_val: "94010"
        string_val: "95127"
        string_val: "95008"
        string_val: "95476"
        string_val: "94928"
        string_val: "95124"
        string_val: "94118"
        string_val: "94507"
        string_val: "94577"
        string_val: "94107"
        string_val: "94544"
        string_val: "94536"
        string_val: "94022"
        string_val: "95129"
        string_val: "95118"
        string_val: "46123"
        string_val: "94025"
        string_val: "94536"
        string_val: "94114"
        string_val: "94043"
        string_val: "90266"
        string_val: "46123"
        string_val: "94965"
        string_val: "94014"
        string_val: "94027"
        string_val: "95472"
        string_val: "94063"
        string_val: "95628"
        string_val: "94507"
        string_val: "95023"
        string_val: "94303"
        string_val: "94566"
        string_val: "95128"
        string_val: "94025"
        string_val: "94089"
        string_val: "94806"
        string_val: "94946"
        string_val: "94501"
        string_val: "94014"
        string_val: "95020"
        string_val: "95135"
        string_val: "94089"
        string_val: "94509"
        string_val: "95666"
        string_val: "93292"
        string_val: "94508"
        string_val: "94526"
        string_val: "95134"
        string_val: "94954"
        string_val: "94303"
        string_val: "95127"
        string_val: "94513"
        string_val: "94115"
        string_val: "94952"
        string_val: "94404"
        string_val: "94010"
        string_val: "94947"
        string_val: "94401"
        string_val: "46123"
        string_val: "95116"
        string_val: "94553"
        string_val: "94063"
        string_val: "94066"
        string_val: "94132"
        string_val: "94552"
        string_val: "89431"
        string_val: "95441"
        string_val: "94536"
        string_val: "94062"
        string_val: "95020"
        string_val: "94062"
        string_val: "46123"
        string_val: "94024"
        string_val: "94044"
        string_val: "94509"
        string_val: "94107"
        string_val: "94920"
        string_val: "94595"
        string_val: "95046"
        string_val: "95131"
        string_val: "94124"
        string_val: "94547"
        string_val: "95121"
        string_val: "94903"
        string_val: "94553"
        string_val: "94110"
        string_val: "95023"
        string_val: "95070"
        string_val: "94506"
        string_val: "94528"
        string_val: "94105"
        string_val: "94704"
        string_val: "97701"
        string_val: "94509"
        string_val: "94621"
        string_val: "46123"
        string_val: "95650"
        string_val: "95037"
        string_val: "94607"
        string_val: "94804"
        string_val: "95139"
        string_val: "95138"
        string_val: "94030"
        string_val: "95008"
        string_val: "95125"
        string_val: "94103"
        string_val: "95008"
        string_val: "94116"
        string_val: "95134"
        string_val: "94602"
        string_val: "94596"
        string_val: "94110"
        string_val: "94706"
        string_val: "94118"
        string_val: "90266"
        string_val: "95666"
        string_val: "94508"
        string_val: "95135"
        string_val: "95132"
        string_val: "95032"
        string_val: "21401"
        string_val: "95117"
        string_val: "95123"
        string_val: "95128"
        string_val: "95461"
        string_val: "94904"
        string_val: "89431"
        string_val: "94089"
        string_val: "95020"
        string_val: "95425"
        string_val: "94805"
        string_val: "94546"
        string_val: "94930"
        string_val: "46123"
        string_val: "94506"
        string_val: "94619"
        string_val: "94089"
        string_val: "94567"
        string_val: "95376"
        string_val: "94134"
        string_val: "95422"
        string_val: "95020"
        string_val: "95037"
        string_val: "95476"
        string_val: "94708"
        string_val: "95122"
        string_val: "94945"
        string_val: "94703"
        string_val: "94114"
        string_val: "95123"
        string_val: "94920"
        string_val: "97701"
        string_val: "95035"
        string_val: "89431"
        string_val: "94703"
        string_val: "94903"
        string_val: "94040"
        string_val: "94549"
        string_val: "95127"
        string_val: "95124"
        string_val: "93292"
        string_val: "89431"
        string_val: "94301"
        string_val: "95127"
        string_val: "94549"
        string_val: "94402"
        string_val: "94605"
        string_val: "94598"
        string_val: "95391"
        string_val: "89431"
        string_val: "95138"
        string_val: "94538"
        string_val: "95046"
        string_val: "94541"
        string_val: "94102"
        string_val: "46123"
        string_val: "97701"
        string_val: "95032"
        string_val: "94556"
        string_val: "94612"
        string_val: "95070"
        string_val: "94401"
        string_val: "94030"
        string_val: "94508"
        string_val: "95125"
        string_val: "94104"
        string_val: "94402"
        string_val: "95113"
        string_val: "97701"
        string_val: "94112"
        string_val: "94010"
        string_val: "95125"
        string_val: "94605"
        string_val: "94937"
        string_val: "94561"
        string_val: "94904"
        string_val: "94901"
        string_val: "94025"
        string_val: "95129"
        string_val: "46123"
        string_val: "94525"
        string_val: "94608"
        string_val: "94089"
        string_val: "95112"
        string_val: "89431"
        string_val: "94549"
        string_val: "94560"
        string_val: "94022"
        string_val: "94404"
        string_val: "95442"
        string_val: "95441"
        string_val: "94947"
        string_val: "94087"
        string_val: "94109"
        string_val: "95121"
        string_val: "94560"
        string_val: "94010"
        string_val: "94541"
        string_val: "95125"
        string_val: "94066"
        string_val: "94552"
        string_val: "94123"
        string_val: "94080"
        string_val: "94109"
        string_val: "94561"
        string_val: "94027"
        string_val: "94574"
        string_val: "94517"
        string_val: "94610"
        string_val: "95123"
        string_val: "94546"
        string_val: "94947"
        string_val: "95032"
        string_val: "94583"
        string_val: "94520"
        string_val: "95650"
        string_val: "94002"
        string_val: "94027"
        string_val: "95148"
        string_val: "95117"
        string_val: "94531"
        string_val: "94107"
        string_val: "94947"
        string_val: "94903"
        string_val: "95123"
        string_val: "94521"
        string_val: "94061"
        string_val: "94957"
        string_val: "94536"
        string_val: "94107"
        string_val: "94531"
        string_val: "95037"
        string_val: "95116"
        string_val: "94506"
        string_val: "46123"
        string_val: "46123"
        string_val: "94538"
        string_val: "94521"
        string_val: "95112"
        string_val: "94558"
        string_val: "94541"
        string_val: "94924"
        string_val: "95035"
        string_val: "94587"
        string_val: "94937"
        string_val: "95035"
        string_val: "94089"
        string_val: "94566"
        string_val: "94904"
        string_val: "95111"
        string_val: "95409"
        string_val: "95132"
        string_val: "94018"
        string_val: "94010"
        string_val: "95113"
        string_val: "94103"
        string_val: "94015"
        string_val: "95050"
        string_val: "94107"
        string_val: "95138"
        string_val: "95037"
        string_val: "94945"
        string_val: "94804"
        string_val: "95117"
        string_val: "95445"
        string_val: "94547"
        string_val: "94806"
        string_val: "95138"
        string_val: "94044"
        string_val: "94547"
        string_val: "94547"
        string_val: "94025"
        string_val: "94014"
        string_val: "95376"
        string_val: "94116"
        string_val: "94103"
        string_val: "94563"
        string_val: "94970"
        string_val: "95136"
        string_val: "94015"
        string_val: "94928"
        string_val: "94572"
        string_val: "95135"
        string_val: "95472"
        string_val: "94563"
        string_val: "94804"
        string_val: "95123"
        string_val: "94607"
      }
    }
  }
}
node {
  name: "SparseTensor/shape"
  op: "Const"
  attr {
    key: "_output_shapes"
    value {
      list {
        shape {
          dim {
            size: 2
          }
        }
      }
    }
  }
  attr {
    key: "dtype"
    value {
      type: DT_INT64
    }
  }
  attr {
    key: "value"
    value {
      tensor {
        dtype: DT_INT64
        tensor_shape {
          dim {
            size: 2
          }
        }
        tensor_content: "|\006\000\000\000\000\000\000\001\000\000\000\000\000\000\000"
      }
    }
  }
}
node {
  name: "SparseTensor_1/indices"
  op: "Const"
  attr {
    key: "_output_shapes"
    value {
      list {
        shape {
          dim {
            size: 1660
          }
          dim {
            size: 2
          }
        }
      }
    }
  }
  attr {
    key: "dtype"
    value {
      type: DT_INT64
    }
  }
  attr {
    key: "value"
    value {
      tensor {
        dtype: DT_INT64
        tensor_shape {
          dim {
            size: 1660
          }
          dim {
            size: 2
          }
        }
        tensor_content: "…"
      }
    }
  }
}
node {
  name: "SparseTensor_1/values"
  op: "Const"
  attr {
    key: "_output_shapes"
    value {
      list {
        shape {
          dim {
            size: 1660
          }
        }
      }
    }
  }
  attr {
    key: "dtype"
    value {
      type: DT_STRING
    }
  }
  attr {
    key: "value"
    value {
      tensor {
        dtype: DT_STRING
        tensor_shape {
          dim {
            size: 1660
          }
        }
        string_val: "Single Family"
        string_val: "Single Family"
        string_val: "Single Family"
        string_val: "Single Family"
        string_val: "Single Family"
        string_val: "Single Family"
        string_val: "Single Family"
        string_val: "Condo"
        string_val: "Single Family"
        string_val: "Single Family"
        string_val: "Single Family"
        string_val: "Single Family"
        string_val: "Condo"
        string_val: "Multi Family"
        string_val: "Single Family"
        string_val: "Mobile / Manufactured"
        string_val: "Condo"
        string_val: "Single Family"
        string_val: "Single Family"
        string_val: "Single Family"
        string_val: "Single Family"
        string_val: "Single Family"
        string_val: "Condo"
        string_val: "Single Family"
        string_val: "Mobile / Manufactured"
        string_val: "Single Family"
        string_val: "Single Family"
        string_val: "Single Family"
        string_val: "Condo"
        string_val: "Condo"
        string_val: "Single Family"
        string_val: "Mobile / Manufactured"
        string_val: "Multi Family"
        string_val: "Single Family"
        string_val: "Single Family"
        string_val: "Mobile / Manufactured"
        string_val: "Single Family"
        string_val: "Single Family"
        string_val: "Condo"
        string_val: "Multi Family"
        string_val: "Single Family"
        string_val: "Condo"
        string_val: "Single Family"
        string_val: "Condo"
        string_val: "Single Family"
        string_val: "Condo"
        string_val: "Single Family"
        string_val: "Single Family"
        string_val: "Condo"
        string_val: "Single Family"
        string_val: "Single Family"
        string_val: "Mobile / Manufactured"
        string_val: "Single Family"
        string_val: "Single Family"
        string_val: "Condo"
        string_val: "Condo"
        string_val: "Single Family"
        string_val: "Single Family"
        string_val: "Townhouse"
        string_val: "Condo"
        string_val: "Condo"
        string_val: "Single Family"
        string_val: "Single Family"
        string_val: "Single Family"
        string_val: "Single Family"
        string_val: "Single Family"
        string_val: "Single Family"
        string_val: "Single Family"
        string_val: "Condo"
        string_val: "Single Family"
        string_val: "Single Family"
        string_val: "Single Family"
        string_val: "Single Family"
        string_val: "Single Family"
        string_val: "Single Family"
        string_val: "Single Family"
        string_val: "Single Family"
        string_val: "Single Family"
        string_val: "Townhouse"
        string_val: "Single Family"
        string_val: "Single Family"
        string_val: "Condo"
        string_val: "Single Family"
        string_val: "Single Family"
        string_val: "Single Family"
        string_val: "Single Family"
        string_val: "Single Family"
        string_val: "Condo"
        string_val: "Townhouse"
        string_val: "Mobile / Manufactured"
        string_val: "Condo"
        string_val: "Single Family"
        string_val: "Single Family"
        string_val: "Single Family"
        string_val: "Single Family"
        string_val: "Condo"
        string_val: "Single Family"
        string_val: "Townhouse"
        string_val: "Single Family"
        string_val: "Single Family"
        string_val: "Single Family"
        string_val: "Condo"
        string_val: "Single Family"
        string_val: "Mobile / Manufactured"
        string_val: "Single Family"
        string_val: "Single Family"
        string_val: "Single Family"
        string_val: "Single Family"
        string_val: "Single Family"
        string_val: "Single Family"
        string_val: "Single Family"
        string_val: "Mobile / Manufactured"
        string_val: "Single Family"
        string_val: "Condo"
        string_val: "Multi Family"
        string_val: "Condo"
        string_val: "Single Family"
        string_val: "Single Family"
        string_val: "Single Family"
        string_val: "Single Family"
        string_val: "Condo"
        string_val: "Single Family"
        string_val: "Single Family"
        string_val: "Townhouse"
        string_val: "Multi Family"
        string_val: "Single Family"
        string_val: "Single Family"
        string_val: "Multi Family"
        string_val: "Single Family"
        string_val: "Mobile / Manufactured"
        string_val: "Condo"
        string_val: "Single Family"
        string_val: "Single Family"
        string_val: "Townhouse"
        string_val: "Single Family"
        string_val: "Single Family"
        string_val: "Single Family"
        string_val: "Single Family"
        string_val: "Single Family"
        string_val: "Townhouse"
        string_val: "Townhouse"
        string_val: "Condo"
        string_val: "Single Family"
        string_val: "Single Family"
        string_val: "Single Family"
        string_val: "Single Family"
        string_val: "Single Family"
        string_val: "Single Family"
        string_val: "Condo"
        string_val: "Single Family"
        string_val: "Single Family"
        string_val: "Single Family"
        string_val: "Single Family"
        string_val: "Condo"
        string_val: "Mobile / Manufactured"
        string_val: "Single Family"
        string_val: "Single Family"
        string_val: "Single Family"
        string_val: "Single Family"
        string_val: "Single Family"
        string_val: "Multi Family"
        string_val: "Single Family"
        string_val: "Single Family"
        string_val: "Single Family"
        string_val: "Condo"
        string_val: "Single Family"
        string_val: "Single Family"
        string_val: "Condo"
        string_val: "Single Family"
        string_val: "Mobile / Manufactured"
        string_val: "Single Family"
        string_val: "Single Family"
        string_val: "Condo"
        string_val: "Single Family"
        string_val: "Townhouse"
        string_val: "Single Family"
        string_val: "Single Family"
        string_val: "Single Family"
        string_val: "Mobile / Manufactured"
        string_val: "Single Family"
        string_val: "Single Family"
        string_val: "Single Family"
        string_val: "Single Family"
        string_val: "Single Family"
        string_val: "Single Family"
        string_val: "Condo"
        string_val: "Mobile / Manufactured"
        string_val: "Condo"
        string_val: "Single Family"
        string_val: "Single Family"
        string_val: "Townhouse"
        string_val: "Single Family"
        string_val: "Single Family"
        string_val: "Single Family"
        string_val: "Townhouse"
        string_val: "Single Family"
        string_val: "Single Family"
        string_val: "Single Family"
        string_val: "Single Family"
        string_val: "Single Family"
        string_val: "Single Family"
        string_val: "Single Family"
        string_val: "Mobile / Manufactured"
        string_val: "Single Family"
        string_val: "Single Family"
        string_val: "Condo"
        string_val: "Single Family"
        string_val: "Single Family"
        string_val: "Single Family"
        string_val: "Single Family"
        string_val: "Single Family"
        string_val: "Single Family"
        string_val: "Single Family"
        string_val: "Single Family"
        string_val: "Single Family"
        string_val: "Townhouse"
        string_val: "Condo"
        string_val: "Condo"
        string_val: "Single Family"
        string_val: "Single Family"
        string_val: "Single Family"
        string_val: "Single Family"
        string_val: "Single Family"
        string_val: "Single Family"
        string_val: "Single Family"
        string_val: "Single Family"
        string_val: "Single Family"
        string_val: "Single Family"
        string_val: "Single Family"
        string_val: "Single Family"
        string_val: "Single Family"
        string_val: "Single Family"
        string_val: "Multi Family"
        string_val: "Single Family"
        string_val: "Condo"
        string_val: "Single Family"
        string_val: "Condo"
        string_val: "Single Family"
        string_val: "Multi Family"
        string_val: "Single Family"
        string_val: "Single Family"
        string_val: "Single Family"
        string_val: "Single Family"
        string_val: "Single Family"
        string_val: "Single Family"
        string_val: "Townhouse"
        string_val: "Single Family"
        string_val: "Mobile / Manufactured"
        string_val: "Single Family"
        string_val: "Condo"
        string_val: "Townhouse"
        string_val: "Single Family"
        string_val: "Single Family"
        string_val: "Mobile / Manufactured"
        string_val: "Multi Family"
        string_val: "Cooperative"
        string_val: "Single Family"
        string_val: "Condo"
        string_val: "Single Family"
        string_val: "Single Family"
        string_val: "Single Family"
        string_val: "Single Family"
        string_val: "Single Family"
        string_val: "Condo"
        string_val: "Townhouse"
        string_val: "Single Family"
        string_val: "Single Family"
        string_val: "Single Family"
        string_val: "Mobile / Manufactured"
        string_val: "Cooperative"
        string_val: "Single Family"
        string_val: "Multi Family"
        string_val: "Single Family"
        string_val: "Multi Family"
        string_val: "Single Family"
        string_val: "Single Family"
        string_val: "Single Family"
        string_val: "Single Family"
        string_val: "Single Family"
        string_val: "Single Family"
        string_val: "Single Family"
        string_val: "Single Family"
        string_val: "Single Family"
        string_val: "Single Family"
        string_val: "Single Family"
        string_val: "Single Family"
        string_val: "Single Family"
        string_val: "Multi Family"
        string_val: "Single Family"
        string_val: "Single Family"
        string_val: "Condo"
        string_val: "Townhouse"
        string_val: "Single Family"
        string_val: "Condo"
        string_val: "Condo"
        string_val: "Single Family"
        string_val: "Single Family"
        string_val: "Single Family"
        string_val: "Single Family"
        string_val: "Single Family"
        string_val: "Single Family"
        string_val: "Condo"
        string_val: "Single Family"
        string_val: "Single Family"
        string_val: "Mobile / Manufactured"
        string_val: "Single Family"
        string_val: "Townhouse"
        string_val: "Single Family"
        string_val: "Single Family"
        string_val: "Townhouse"
        string_val: "Single Family"
        string_val: "Single Family"
        string_val: "Single Family"
        string_val: "Single Family"
        string_val: "Mobile / Manufactured"
        string_val: "Condo"
        string_val: "Single Family"
        string_val: "Single Family"
        string_val: "Single Family"
        string_val: "Single Family"
        string_val: "Single Family"
        string_val: "Townhouse"
        string_val: "Single Family"
        string_val: "Single Family"
        string_val: "Single Family"
        string_val: "Single Family"
        string_val: "Single Family"
        string_val: "Single Family"
        string_val: "Single Family"
        string_val: "Single Family"
        string_val: "Condo"
        string_val: "Single Family"
        string_val: "Single Family"
        string_val: "Condo"
        string_val: "Single Family"
        string_val: "Condo"
        string_val: "Single Family"
        string_val: "Single Family"
        string_val: "Condo"
        string_val: "Single Family"
        string_val: "Single Family"
        string_val: "Single Family"
        string_val: "Single Family"
        string_val: "Single Family"
        string_val: "Single Family"
        string_val: "Single Family"
        string_val: "Single Family"
        string_val: "Mobile / Manufactured"
        string_val: "Single Family"
        string_val: "Single Family"
        string_val: "Single Family"
        string_val: "Condo"
        string_val: "Single Family"
        string_val: "Single Family"
        string_val: "Single Family"
        string_val: "Condo"
        string_val: "Single Family"
        string_val: "Single Family"
        string_val: "Condo"
        string_val: "Single Family"
        string_val: "Single Family"
        string_val: "Condo"
        string_val: "Single Family"
        string_val: "Single Family"
        string_val: "Single Family"
        string_val: "Condo"
        string_val: "Single Family"
        string_val: "Single Family"
        string_val: "Single Family"
        string_val: "Single Family"
        string_val: "Single Family"
        string_val: "Single Family"
        string_val: "Mobile / Manufactured"
        string_val: "Townhouse"
        string_val: "Single Family"
        string_val: "Single Family"
        string_val: "Mobile / Manufactured"
        string_val: "Mobile / Manufactured"
        string_val: "Single Family"
        string_val: "Single Family"
        string_val: "Single Family"
        string_val: "Townhouse"
        string_val: "Mobile / Manufactured"
        string_val: "Single Family"
        string_val: "Single Family"
        string_val: "Single Family"
        string_val: "Mobile / Manufactured"
        string_val: "Condo"
        string_val: "Single Family"
        string_val: "Condo"
        string_val: "Single Family"
        string_val: "Single Family"
        string_val: "Single Family"
        string_val: "Single Family"
        string_val: "Single Family"
        string_val: "Condo"
        string_val: "Single Family"
        string_val: "Mobile / Manufactured"
        string_val: "Single Family"
        string_val: "Single Family"
        string_val: "Single Family"
        string_val: "Single Family"
        string_val: "Single Family"
        string_val: "Single Family"
        string_val: "Single Family"
        string_val: "Single Family"
        string_val: "Single Family"
        string_val: "Single Family"
        string_val: "Single Family"
        string_val: "Condo"
        string_val: "Single Family"
        string_val: "Condo"
        string_val: "Single Family"
        string_val: "Condo"
        string_val: "Single Family"
        string_val: "Single Family"
        string_val: "Single Family"
        string_val: "Townhouse"
        string_val: "Single Family"
        string_val: "Single Family"
        string_val: "Mobile / Manufactured"
        string_val: "Single Family"
        string_val: "Single Family"
        string_val: "Single Family"
        string_val: "Single Family"
        string_val: "Single Family"
        string_val: "Single Family"
        string_val: "Single Family"
        string_val: "Single Family"
        string_val: "Single Family"
        string_val: "Single Family"
        string_val: "Mobile / Manufactured"
        string_val: "Single Family"
        string_val: "Townhouse"
        string_val: "Single Family"
        string_val: "Single Family"
        string_val: "Single Family"
        string_val: "Single Family"
        string_val: "Single Family"
        string_val: "Single Family"
        string_val: "Townhouse"
        string_val: "Single Family"
        string_val: "Condo"
        string_val: "Single Family"
        string_val: "Single Family"
        string_val: "Single Family"
        string_val: "Single Family"
        string_val: "Single Family"
        string_val: "Single Family"
        string_val: "Townhouse"
        string_val: "Single Family"
        string_val: "Condo"
        string_val: "Single Family"
        string_val: "Single Family"
        string_val: "Single Family"
        string_val: "Single Family"
        string_val: "Single Family"
        string_val: "Multi Family"
        string_val: "Single Family"
        string_val: "Single Family"
        string_val: "Single Family"
        string_val: "Single Family"
        string_val: "Mobile / Manufactured"
        string_val: "Mobile / Manufactured"
        string_val: "Single Family"
        string_val: "Single Family"
        string_val: "Condo"
        string_val: "Condo"
        string_val: "Townhouse"
        string_val: "Single Family"
        string_val: "Single Family"
        string_val: "Single Family"
        string_val: "Multi Family"
        string_val: "Single Family"
        string_val: "Mobile / Manufactured"
        string_val: "Single Family"
        string_val: "Single Family"
        string_val: "Single Family"
        string_val: "Single Family"
        string_val: "Condo"
        string_val: "Single Family"
        string_val: "Single Family"
        string_val: "Single Family"
        string_val: "Condo"
        string_val: "Single Family"
        string_val: "Mobile / Manufactured"
        string_val: "Single Family"
        string_val: "Single Family"
        string_val: "Townhouse"
        string_val: "Single Family"
        string_val: "Single Family"
        string_val: "Single Family"
        string_val: "Single Family"
        string_val: "Single Family"
        string_val: "Single Family"
        string_val: "Cooperative"
        string_val: "Single Family"
        string_val: "Single Family"
        string_val: "Single Family"
        string_val: "Single Family"
        string_val: "Single Family"
        string_val: "Single Family"
        string_val: "Single Family"
        string_val: "Single Family"
        string_val: "Single Family"
        string_val: "Condo"
        string_val: "Condo"
        string_val: "Single Family"
        string_val: "Condo"
        string_val: "Condo"
        string_val: "Single Family"
        string_val: "Single Family"
        string_val: "Condo"
        string_val: "Townhouse"
        string_val: "Single Family"
        string_val: "Mobile / Manufactured"
        string_val: "Single Family"
        string_val: "Single Family"
        string_val: "Single Family"
        string_val: "Single Family"
        string_val: "Mobile / Manufactured"
        string_val: "Single Family"
        string_val: "Condo"
        string_val: "Mobile / Manufactured"
        string_val: "Condo"
        string_val: "Single Family"
        string_val: "Single Family"
        string_val: "Single Family"
        string_val: "Single Family"
        string_val: "Single Family"
        string_val: "Single Family"
        string_val: "Single Family"
        string_val: "Single Family"
        string_val: "Single Family"
        string_val: "Single Family"
        string_val: "Townhouse"
        string_val: "Single Family"
        string_val: "Condo"
        string_val: "Single Family"
        string_val: "Single Family"
        string_val: "Single Family"
        string_val: "Condo"
        string_val: "Condo"
        string_val: "Single Family"
        string_val: "Mobile / Manufactured"
        string_val: "Single Family"
        string_val: "Condo"
        string_val: "Single Family"
        string_val: "Single Family"
        string_val: "Single Family"
        string_val: "Condo"
        string_val: "Single Family"
        string_val: "Single Family"
        string_val: "Single Family"
        string_val: "Single Family"
        string_val: "Single Family"
        string_val: "Single Family"
        string_val: "Single Family"
        string_val: "Single Family"
        string_val: "Single Family"
        string_val: "Single Family"
        string_val: "Single Family"
        string_val: "Single Family"
        string_val: "Condo"
        string_val: "Single Family"
        string_val: "Multi Family"
        string_val: "Single Family"
        string_val: "Condo"
        string_val: "Single Family"
        string_val: "Single Family"
        string_val: "Single Family"
        string_val: "Mobile / Manufactured"
        string_val: "Condo"
        string_val: "Mobile / Manufactured"
        string_val: "Single Family"
        string_val: "Townhouse"
        string_val: "Single Family"
        string_val: "Mobile / Manufactured"
        string_val: "Single Family"
        string_val: "Single Family"
        string_val: "Single Family"
        string_val: "Single Family"
        string_val: "Single Family"
        string_val: "Condo"
        string_val: "Single Family"
        string_val: "Single Family"
        string_val: "Mobile / Manufactured"
        string_val: "Mobile / Manufactured"
        string_val: "Single Family"
        string_val: "Single Family"
        string_val: "Condo"
        string_val: "Single Family"
        string_val: "Single Family"
        string_val: "Single Family"
        string_val: "Single Family"
        string_val: "Single Family"
        string_val: "Single Family"
        string_val: "Mobile / Manufactured"
        string_val: "Single Family"
        string_val: "Multi Family"
        string_val: "Condo"
        string_val: "Mobile / Manufactured"
        string_val: "Single Family"
        string_val: "Single Family"
        string_val: "Single Family"
        string_val: "Mobile / Manufactured"
        string_val: "Mobile / Manufactured"
        string_val: "Single Family"
        string_val: "Mobile / Manufactured"
        string_val: "Mobile / Manufactured"
        string_val: "Single Family"
        string_val: "Single Family"
        string_val: "Single Family"
        string_val: "Single Family"
        string_val: "Single Family"
        string_val: "Single Family"
        string_val: "Single Family"
        string_val: "Single Family"
        string_val: "Single Family"
        string_val: "Single Family"
        string_val: "Single Family"
        string_val: "Single Family"
        string_val: "Condo"
        string_val: "Single Family"
        string_val: "Single Family"
        string_val: "Single Family"
        string_val: "Townhouse"
        string_val: "Single Family"
        string_val: "Single Family"
        string_val: "Single Family"
        string_val: "Condo"
        string_val: "Single Family"
        string_val: "Single Family"
        string_val: "Single Family"
        string_val: "Single Family"
        string_val: "Single Family"
        string_val: "Condo"
        string_val: "Single Family"
        string_val: "Condo"
        string_val: "Single Family"
        string_val: "Single Family"
        string_val: "Single Family"
        string_val: "Single Family"
        string_val: "Single Family"
        string_val: "Single Family"
        string_val: "Single Family"
        string_val: "Single Family"
        string_val: "Single Family"
        string_val: "Mobile / Manufactured"
        string_val: "Single Family"
        string_val: "Single Family"
        string_val: "Single Family"
        string_val: "Single Family"
        string_val: "Condo"
        string_val: "Single Family"
        string_val: "Single Family"
        string_val: "Single Family"
        string_val: "Single Family"
        string_val: "Single Family"
        string_val: "Single Family"
        string_val: "Single Family"
        string_val: "Miscellaneous"
        string_val: "Single Family"
        string_val: "Single Family"
        string_val: "Single Family"
        string_val: "Single Family"
        string_val: "Single Family"
        string_val: "Mobile / Manufactured"
        string_val: "Townhouse"
        string_val: "Mobile / Manufactured"
        string_val: "Mobile / Manufactured"
        string_val: "Single Family"
        string_val: "Townhouse"
        string_val: "Single Family"
        string_val: "Single Family"
        string_val: "Single Family"
        string_val: "Townhouse"
        string_val: "Condo"
        string_val: "Townhouse"
        string_val: "Single Family"
        string_val: "Condo"
        string_val: "Single Family"
        string_val: "Single Family"
        string_val: "Condo"
        string_val: "Condo"
        string_val: "Single Family"
        string_val: "Condo"
        string_val: "Single Family"
        string_val: "Townhouse"
        string_val: "Single Family"
        string_val: "Single Family"
        string_val: "Mobile / Manufactured"
        string_val: "Mobile / Manufactured"
        string_val: "Single Family"
        string_val: "Single Family"
        string_val: "Single Family"
        string_val: "Single Family"
        string_val: "Single Family"
        string_val: "Single Family"
        string_val: "Mobile / Manufactured"
        string_val: "Single Family"
        string_val: "Mobile / Manufactured"
        string_val: "Mobile / Manufactured"
        string_val: "Single Family"
        string_val: "Single Family"
        string_val: "Single Family"
        string_val: "Condo"
        string_val: "Single Family"
        string_val: "Single Family"
        string_val: "Single Family"
        string_val: "Single Family"
        string_val: "Condo"
        string_val: "Single Family"
        string_val: "Mobile / Manufactured"
        string_val: "Single Family"
        string_val: "Single Family"
        string_val: "Single Family"
        string_val: "Single Family"
        string_val: "Single Family"
        string_val: "Condo"
        string_val: "Single Family"
        string_val: "Single Family"
        string_val: "Single Family"
        string_val: "Multi Family"
        string_val: "Townhouse"
        string_val: "Single Family"
        string_val: "Multi Family"
        string_val: "Condo"
        string_val: "Multi Family"
        string_val: "Single Family"
        string_val: "Single Family"
        string_val: "Condo"
        string_val: "Single Family"
        string_val: "Townhouse"
        string_val: "Single Family"
        string_val: "Single Family"
        string_val: "Single Family"
        string_val: "Single Family"
        string_val: "Single Family"
        string_val: "Mobile / Manufactured"
        string_val: "Mobile / Manufactured"
        string_val: "Single Family"
        string_val: "Single Family"
        string_val: "Multi Family"
        string_val: "Single Family"
        string_val: "Single Family"
        string_val: "Single Family"
        string_val: "Single Family"
        string_val: "Condo"
        string_val: "Single Family"
        string_val: "Mobile / Manufactured"
        string_val: "Single Family"
        string_val: "Mobile / Manufactured"
        string_val: "Single Family"
        string_val: "Single Family"
        string_val: "Single Family"
        string_val: "Single Family"
        string_val: "Single Family"
        string_val: "Single Family"
        string_val: "Single Family"
        string_val: "Single Family"
        string_val: "Condo"
        string_val: "Condo"
        string_val: "Condo"
        string_val: "Single Family"
        string_val: "Condo"
        string_val: "Single Family"
        string_val: "Single Family"
        string_val: "Mobile / Manufactured"
        string_val: "Condo"
        string_val: "Mobile / Manufactured"
        string_val: "Single Family"
        string_val: "Single Family"
        string_val: "Condo"
        string_val: "Condo"
        string_val: "Single Family"
        string_val: "Condo"
        string_val: "Condo"
        string_val: "Single Family"
        string_val: "Single Family"
        string_val: "Single Family"
        string_val: "Single Family"
        string_val: "Single Family"
        string_val: "Townhouse"
        string_val: "Condo"
        string_val: "Townhouse"
        string_val: "Single Family"
        string_val: "Single Family"
        string_val: "Single Family"
        string_val: "Condo"
        string_val: "Single Family"
        string_val: "Single Family"
        string_val: "Single Family"
        string_val: "Single Family"
        string_val: "Condo"
        string_val: "Single Family"
        string_val: "Mobile / Manufactured"
        string_val: "Single Family"
        string_val: "Mobile / Manufactured"
        string_val: "Mobile / Manufactured"
        string_val: "Single Family"
        string_val: "Single Family"
        string_val: "Single Family"
        string_val: "Mobile / Manufactured"
        string_val: "Single Family"
        string_val: "Single Family"
        string_val: "Single Family"
        string_val: "Mobile / Manufactured"
        string_val: "Mobile / Manufactured"
        string_val: "Single Family"
        string_val: "Condo"
        string_val: "Single Family"
        string_val: "Single Family"
        string_val: "Single Family"
        string_val: "Single Family"
        string_val: "Single Family"
        string_val: "Single Family"
        string_val: "Single Family"
        string_val: "Townhouse"
        string_val: "Single Family"
        string_val: "Single Family"
        string_val: "Condo"
        string_val: "Single Family"
        string_val: "Condo"
        string_val: "Condo"
        string_val: "Single Family"
        string_val: "Single Family"
        string_val: "Condo"
        string_val: "Single Family"
        string_val: "Mobile / Manufactured"
        string_val: "Single Family"
        string_val: "Single Family"
        string_val: "Single Family"
        string_val: "Single Family"
        string_val: "Single Family"
        string_val: "Single Family"
        string_val: "Single Family"
        string_val: "Single Family"
        string_val: "Single Family"
        string_val: "Mobile / Manufactured"
        string_val: "Condo"
        string_val: "Single Family"
        string_val: "Townhouse"
        string_val: "Mobile / Manufactured"
        string_val: "Single Family"
        string_val: "Single Family"
        string_val: "Single Family"
        string_val: "Multi Family"
        string_val: "Multi Family"
        string_val: "Townhouse"
        string_val: "Single Family"
        string_val: "Single Family"
        string_val: "Townhouse"
        string_val: "Single Family"
        string_val: "Single Family"
        string_val: "Condo"
        string_val: "Condo"
        string_val: "Single Family"
        string_val: "Single Family"
        string_val: "Single Family"
        string_val: "Single Family"
        string_val: "Multi Family"
        string_val: "Single Family"
        string_val: "Condo"
        string_val: "Single Family"
        string_val: "Condo"
        string_val: "Single Family"
        string_val: "Single Family"
        string_val: "Townhouse"
        string_val: "Condo"
        string_val: "Condo"
        string_val: "Single Family"
        string_val: "Condo"
        string_val: "Single Family"
        string_val: "Single Family"
        string_val: "Mobile / Manufactured"
        string_val: "Single Family"
        string_val: "Single Family"
        string_val: "Single Family"
        string_val: "Single Family"
        string_val: "Single Family"
        string_val: "Single Family"
        string_val: "Single Family"
        string_val: "Single Family"
        string_val: "Single Family"
        string_val: "Townhouse"
        string_val: "Single Family"
        string_val: "Condo"
        string_val: "Mobile / Manufactured"
        string_val: "Single Family"
        string_val: "Mobile / Manufactured"
        string_val: "Single Family"
        string_val: "Single Family"
        string_val: "Condo"
        string_val: "Single Family"
        string_val: "Single Family"
        string_val: "Single Family"
        string_val: "Single Family"
        string_val: "Single Family"
        string_val: "Single Family"
        string_val: "Single Family"
        string_val: "Condo"
        string_val: "Mobile / Manufactured"
        string_val: "Single Family"
        string_val: "Single Family"
        string_val: "Mobile / Manufactured"
        string_val: "Single Family"
        string_val: "Mobile / Manufactured"
        string_val: "Mobile / Manufactured"
        string_val: "Single Family"
        string_val: "Mobile / Manufactured"
        string_val: "Condo"
        string_val: "Single Family"
        string_val: "Single Family"
        string_val: "Mobile / Manufactured"
        string_val: "Single Family"
        string_val: "Single Family"
        string_val: "Single Family"
        string_val: "Mobile / Manufactured"
        string_val: "Mobile / Manufactured"
        string_val: "Single Family"
        string_val: "Single Family"
        string_val: "Single Family"
        string_val: "Mobile / Manufactured"
        string_val: "Single Family"
        string_val: "Condo"
        string_val: "Condo"
        string_val: "Single Family"
        string_val: "Single Family"
        string_val: "Single Family"
        string_val: "Condo"
        string_val: "Single Family"
        string_val: "Single Family"
        string_val: "Single Family"
        string_val: "Mobile / Manufactured"
        string_val: "Single Family"
        string_val: "Single Family"
        string_val: "Condo"
        string_val: "Single Family"
        string_val: "Single Family"
        string_val: "Condo"
        string_val: "Single Family"
        string_val: "Single Family"
        string_val: "Single Family"
        string_val: "Single Family"
        string_val: "Single Family"
        string_val: "Condo"
        string_val: "Single Family"
        string_val: "Single Family"
        string_val: "Condo"
        string_val: "Mobile / Manufactured"
        string_val: "Mobile / Manufactured"
        string_val: "Single Family"
        string_val: "Mobile / Manufactured"
        string_val: "Single Family"
        string_val: "Condo"
        string_val: "Condo"
        string_val: "Single Family"
        string_val: "Single Family"
        string_val: "Single Family"
        string_val: "Condo"
        string_val: "Single Family"
        string_val: "Single Family"
        string_val: "Single Family"
        string_val: "Single Family"
        string_val: "Single Family"
        string_val: "Single Family"
        string_val: "Single Family"
        string_val: "Multi Family"
        string_val: "Single Family"
        string_val: "Single Family"
        string_val: "Condo"
        string_val: "Condo"
        string_val: "Multi Family"
        string_val: "Single Family"
        string_val: "Single Family"
        string_val: "Condo"
        string_val: "Single Family"
        string_val: "Single Family"
        string_val: "Condo"
        string_val: "Multi Family"
        string_val: "Mobile / Manufactured"
        string_val: "Single Family"
        string_val: "Mobile / Manufactured"
        string_val: "Single Family"
        string_val: "Single Family"
        string_val: "Mobile / Manufactured"
        string_val: "Single Family"
        string_val: "Condo"
        string_val: "Single Family"
        string_val: "Single Family"
        string_val: "Single Family"
        string_val: "Single Family"
        string_val: "Single Family"
        string_val: "Single Family"
        string_val: "Mobile / Manufactured"
        string_val: "Single Family"
        string_val: "Single Family"
        string_val: "Mobile / Manufactured"
        string_val: "Single Family"
        string_val: "Single Family"
        string_val: "Single Family"
        string_val: "Single Family"
        string_val: "Townhouse"
        string_val: "Single Family"
        string_val: "Single Family"
        string_val: "Condo"
        string_val: "Single Family"
        string_val: "Condo"
        string_val: "Single Family"
        string_val: "Condo"
        string_val: "Condo"
        string_val: "Single Family"
        string_val: "Single Family"
        string_val: "Condo"
        string_val: "Single Family"
        string_val: "Single Family"
        string_val: "Single Family"
        string_val: "Single Family"
        string_val: "Single Family"
        string_val: "Multi Family"
        string_val: "Single Family"
        string_val: "Condo"
        string_val: "Condo"
        string_val: "Single Family"
        string_val: "Single Family"
        string_val: "Single Family"
        string_val: "Mobile / Manufactured"
        string_val: "Mobile / Manufactured"
        string_val: "Single Family"
        string_val: "Single Family"
        string_val: "Condo"
        string_val: "Single Family"
        string_val: "Single Family"
        string_val: "Single Family"
        string_val: "Single Family"
        string_val: "Single Family"
        string_val: "Single Family"
        string_val: "Condo"
        string_val: "Townhouse"
        string_val: "Single Family"
        string_val: "Mobile / Manufactured"
        string_val: "Single Family"
        string_val: "Single Family"
        string_val: "Mobile / Manufactured"
        string_val: "Single Family"
        string_val: "Condo"
        string_val: "Single Family"
        string_val: "Condo"
        string_val: "Single Family"
        string_val: "Single Family"
        string_val: "Mobile / Manufactured"
        string_val: "Single Family"
        string_val: "Single Family"
        string_val: "Single Family"
        string_val: "Single Family"
        string_val: "Townhouse"
        string_val: "Condo"
        string_val: "Condo"
        string_val: "Single Family"
        string_val: "Condo"
        string_val: "Condo"
        string_val: "Mobile / Manufactured"
        string_val: "Single Family"
        string_val: "Condo"
        string_val: "Single Family"
        string_val: "Cooperative"
        string_val: "Single Family"
        string_val: "Condo"
        string_val: "Single Family"
        string_val: "Single Family"
        string_val: "Single Family"
        string_val: "Single Family"
        string_val: "Single Family"
        string_val: "Single Family"
        string_val: "Mobile / Manufactured"
        string_val: "Single Family"
        string_val: "Single Family"
        string_val: "Townhouse"
        string_val: "Single Family"
        string_val: "Single Family"
        string_val: "Condo"
        string_val: "Condo"
        string_val: "Single Family"
        string_val: "Single Family"
        string_val: "Single Family"
        string_val: "Single Family"
        string_val: "Condo"
        string_val: "Condo"
        string_val: "Single Family"
        string_val: "Single Family"
        string_val: "Single Family"
        string_val: "Single Family"
        string_val: "Condo"
        string_val: "Mobile / Manufactured"
        string_val: "Single Family"
        string_val: "Single Family"
        string_val: "Single Family"
        string_val: "Single Family"
        string_val: "Single Family"
        string_val: "Mobile / Manufactured"
        string_val: "Single Family"
        string_val: "Single Family"
        string_val: "Single Family"
        string_val: "Single Family"
        string_val: "Single Family"
        string_val: "Single Family"
        string_val: "Single Family"
        string_val: "Single Family"
        string_val: "Single Family"
        string_val: "Single Family"
        string_val: "Condo"
        string_val: "Single Family"
        string_val: "Single Family"
        string_val: "Mobile / Manufactured"
        string_val: "Single Family"
        string_val: "Single Family"
        string_val: "Single Family"
        string_val: "Condo"
        string_val: "Single Family"
        string_val: "Multi Family"
        string_val: "Mobile / Manufactured"
        string_val: "Cooperative"
        string_val: "Single Family"
        string_val: "Mobile / Manufactured"
        string_val: "Single Family"
        string_val: "Single Family"
        string_val: "Mobile / Manufactured"
        string_val: "Single Family"
        string_val: "Condo"
        string_val: "Single Family"
        string_val: "Condo"
        string_val: "Condo"
        string_val: "Single Family"
        string_val: "Condo"
        string_val: "Townhouse"
        string_val: "Single Family"
        string_val: "Single Family"
        string_val: "Single Family"
        string_val: "Multi Family"
        string_val: "Mobile / Manufactured"
        string_val: "Single Family"
        string_val: "Condo"
        string_val: "Mobile / Manufactured"
        string_val: "Single Family"
        string_val: "Multi Family"
        string_val: "Single Family"
        string_val: "Single Family"
        string_val: "Single Family"
        string_val: "Multi Family"
        string_val: "Single Family"
        string_val: "Single Family"
        string_val: "Single Family"
        string_val: "Single Family"
        string_val: "Single Family"
        string_val: "Condo"
        string_val: "Single Family"
        string_val: "Condo"
        string_val: "Single Family"
        string_val: "Condo"
        string_val: "Single Family"
        string_val: "Single Family"
        string_val: "Single Family"
        string_val: "Single Family"
        string_val: "Single Family"
        string_val: "Single Family"
        string_val: "Mobile / Manufactured"
        string_val: "Single Family"
        string_val: "Single Family"
        string_val: "Single Family"
        string_val: "Single Family"
        string_val: "Condo"
        string_val: "Condo"
        string_val: "Single Family"
        string_val: "Single Family"
        string_val: "Single Family"
        string_val: "Condo"
        string_val: "Single Family"
        string_val: "Single Family"
        string_val: "Single Family"
        string_val: "Single Family"
        string_val: "Single Family"
        string_val: "Townhouse"
        string_val: "Single Family"
        string_val: "Single Family"
        string_val: "Single Family"
        string_val: "Single Family"
        string_val: "Condo"
        string_val: "Single Family"
        string_val: "Single Family"
        string_val: "Single Family"
        string_val: "Single Family"
        string_val: "Single Family"
        string_val: "Single Family"
        string_val: "Single Family"
        string_val: "Single Family"
        string_val: "Townhouse"
        string_val: "Single Family"
        string_val: "Condo"
        string_val: "Single Family"
        string_val: "Mobile / Manufactured"
        string_val: "Townhouse"
        string_val: "Mobile / Manufactured"
        string_val: "Single Family"
        string_val: "Single Family"
        string_val: "Single Family"
        string_val: "Mobile / Manufactured"
        string_val: "Single Family"
        string_val: "Condo"
        string_val: "Condo"
        string_val: "Single Family"
        string_val: "Single Family"
        string_val: "Single Family"
        string_val: "Single Family"
        string_val: "Single Family"
        string_val: "Single Family"
        string_val: "Single Family"
        string_val: "Mobile / Manufactured"
        string_val: "Single Family"
        string_val: "Condo"
        string_val: "Single Family"
        string_val: "Single Family"
        string_val: "Condo"
        string_val: "Single Family"
        string_val: "Mobile / Manufactured"
        string_val: "Condo"
        string_val: "Single Family"
        string_val: "Single Family"
        string_val: "Condo"
        string_val: "Condo"
        string_val: "Condo"
        string_val: "Condo"
        string_val: "Mobile / Manufactured"
        string_val: "Single Family"
        string_val: "Condo"
        string_val: "Condo"
        string_val: "Condo"
        string_val: "Mobile / Manufactured"
        string_val: "Single Family"
        string_val: "Condo"
        string_val: "Single Family"
        string_val: "Single Family"
        string_val: "Single Family"
        string_val: "Single Family"
        string_val: "Single Family"
        string_val: "Single Family"
        string_val: "Single Family"
        string_val: "Single Family"
        string_val: "Single Family"
        string_val: "Single Family"
        string_val: "Mobile / Manufactured"
        string_val: "Mobile / Manufactured"
        string_val: "Mobile / Manufactured"
        string_val: "Single Family"
        string_val: "Single Family"
        string_val: "Condo"
        string_val: "Single Family"
        string_val: "Single Family"
        string_val: "Condo"
        string_val: "Single Family"
        string_val: "Single Family"
        string_val: "Condo"
        string_val: "Single Family"
        string_val: "Single Family"
        string_val: "Single Family"
        string_val: "Single Family"
        string_val: "Condo"
        string_val: "Condo"
        string_val: "Condo"
        string_val: "Condo"
        string_val: "Single Family"
        string_val: "Single Family"
        string_val: "Single Family"
        string_val: "Single Family"
        string_val: "Single Family"
        string_val: "Single Family"
        string_val: "Single Family"
        string_val: "Single Family"
        string_val: "Condo"
        string_val: "Single Family"
        string_val: "Single Family"
        string_val: "Condo"
        string_val: "Single Family"
        string_val: "Mobile / Manufactured"
        string_val: "Single Family"
        string_val: "Condo"
        string_val: "Single Family"
        string_val: "Single Family"
        string_val: "Single Family"
        string_val: "Mobile / Manufactured"
        string_val: "Condo"
        string_val: "Single Family"
        string_val: "Townhouse"
        string_val: "Single Family"
        string_val: "Single Family"
        string_val: "Condo"
        string_val: "Single Family"
        string_val: "Single Family"
        string_val: "Townhouse"
        string_val: "Single Family"
        string_val: "Single Family"
        string_val: "Single Family"
        string_val: "Condo"
        string_val: "Condo"
        string_val: "Single Family"
        string_val: "Single Family"
        string_val: "Single Family"
        string_val: "Single Family"
        string_val: "Condo"
        string_val: "Townhouse"
        string_val: "Townhouse"
        string_val: "Single Family"
        string_val: "Single Family"
        string_val: "Condo"
        string_val: "Single Family"
        string_val: "Single Family"
        string_val: "Single Family"
        string_val: "Single Family"
        string_val: "Single Family"
        string_val: "Single Family"
        string_val: "Mobile / Manufactured"
        string_val: "Single Family"
        string_val: "Single Family"
        string_val: "Townhouse"
        string_val: "Single Family"
        string_val: "Mobile / Manufactured"
        string_val: "Mobile / Manufactured"
        string_val: "Mobile / Manufactured"
        string_val: "Single Family"
        string_val: "Condo"
        string_val: "Single Family"
        string_val: "Mobile / Manufactured"
        string_val: "Townhouse"
        string_val: "Single Family"
        string_val: "Single Family"
        string_val: "Single Family"
        string_val: "Townhouse"
        string_val: "Townhouse"
        string_val: "Single Family"
        string_val: "Condo"
        string_val: "Condo"
        string_val: "Single Family"
        string_val: "Single Family"
        string_val: "Single Family"
        string_val: "Single Family"
        string_val: "Single Family"
        string_val: "Townhouse"
        string_val: "Single Family"
        string_val: "Single Family"
        string_val: "Condo"
        string_val: "Single Family"
        string_val: "Mobile / Manufactured"
        string_val: "Single Family"
        string_val: "Single Family"
        string_val: "Single Family"
        string_val: "Single Family"
        string_val: "Mobile / Manufactured"
        string_val: "Condo"
        string_val: "Multi Family"
        string_val: "Single Family"
        string_val: "Condo"
        string_val: "Condo"
        string_val: "Single Family"
        string_val: "Townhouse"
        string_val: "Single Family"
        string_val: "Single Family"
        string_val: "Single Family"
        string_val: "Single Family"
        string_val: "Single Family"
        string_val: "Condo"
        string_val: "Single Family"
        string_val: "Mobile / Manufactured"
        string_val: "Townhouse"
        string_val: "Single Family"
        string_val: "Single Family"
        string_val: "Single Family"
        string_val: "Single Family"
        string_val: "Single Family"
        string_val: "Condo"
        string_val: "Single Family"
        string_val: "Single Family"
        string_val: "Single Family"
        string_val: "Single Family"
        string_val: "Single Family"
        string_val: "Mobile / Manufactured"
        string_val: "Condo"
        string_val: "Mobile / Manufactured"
        string_val: "Single Family"
        string_val: "Single Family"
        string_val: "Multi Family"
        string_val: "Single Family"
        string_val: "Single Family"
        string_val: "Single Family"
        string_val: "Mobile / Manufactured"
        string_val: "Single Family"
        string_val: "Single Family"
        string_val: "Single Family"
        string_val: "Single Family"
        string_val: "Single Family"
        string_val: "Mobile / Manufactured"
        string_val: "Single Family"
        string_val: "Townhouse"
        string_val: "Single Family"
        string_val: "Single Family"
        string_val: "Cooperative"
        string_val: "Single Family"
        string_val: "Condo"
        string_val: "Single Family"
        string_val: "Single Family"
        string_val: "Single Family"
        string_val: "Condo"
        string_val: "Single Family"
        string_val: "Single Family"
        string_val: "Single Family"
        string_val: "Single Family"
        string_val: "Single Family"
        string_val: "Townhouse"
        string_val: "Single Family"
        string_val: "Single Family"
        string_val: "Condo"
        string_val: "Single Family"
        string_val: "Single Family"
        string_val: "Single Family"
        string_val: "Condo"
        string_val: "Single Family"
        string_val: "Single Family"
        string_val: "Single Family"
        string_val: "Condo"
        string_val: "Single Family"
        string_val: "Single Family"
        string_val: "Single Family"
        string_val: "Mobile / Manufactured"
        string_val: "Single Family"
        string_val: "Condo"
        string_val: "Condo"
        string_val: "Cooperative"
        string_val: "Single Family"
        string_val: "Single Family"
        string_val: "Single Family"
        string_val: "Single Family"
        string_val: "Single Family"
        string_val: "Single Family"
        string_val: "Condo"
        string_val: "Single Family"
        string_val: "Single Family"
        string_val: "Single Family"
        string_val: "Single Family"
        string_val: "Single Family"
        string_val: "Single Family"
        string_val: "Single Family"
        string_val: "Condo"
        string_val: "Single Family"
        string_val: "Single Family"
        string_val: "Single Family"
        string_val: "Single Family"
        string_val: "Single Family"
        string_val: "Mobile / Manufactured"
        string_val: "Condo"
        string_val: "Townhouse"
        string_val: "Single Family"
        string_val: "Mobile / Manufactured"
        string_val: "Condo"
        string_val: "Single Family"
        string_val: "Condo"
        string_val: "Condo"
        string_val: "Single Family"
        string_val: "Condo"
        string_val: "Mobile / Manufactured"
        string_val: "Single Family"
        string_val: "Single Family"
        string_val: "Single Family"
        string_val: "Single Family"
        string_val: "Single Family"
        string_val: "Mobile / Manufactured"
        string_val: "Mobile / Manufactured"
        string_val: "Single Family"
        string_val: "Single Family"
        string_val: "Single Family"
        string_val: "Single Family"
        string_val: "Mobile / Manufactured"
        string_val: "Townhouse"
        string_val: "Single Family"
        string_val: "Single Family"
        string_val: "Single Family"
        string_val: "Single Family"
        string_val: "Single Family"
        string_val: "Single Family"
        string_val: "Condo"
        string_val: "Mobile / Manufactured"
        string_val: "Single Family"
        string_val: "Single Family"
        string_val: "Single Family"
        string_val: "Single Family"
        string_val: "Single Family"
        string_val: "Single Family"
        string_val: "Mobile / Manufactured"
        string_val: "Single Family"
        string_val: "Mobile / Manufactured"
        string_val: "Single Family"
        string_val: "Condo"
        string_val: "Condo"
        string_val: "Single Family"
        string_val: "Single Family"
        string_val: "Single Family"
        string_val: "Condo"
        string_val: "Single Family"
        string_val: "Single Family"
        string_val: "Single Family"
        string_val: "Single Family"
        string_val: "Single Family"
        string_val: "Condo"
        string_val: "Single Family"
        string_val: "Single Family"
        string_val: "Single Family"
        string_val: "Single Family"
        string_val: "Single Family"
        string_val: "Single Family"
        string_val: "Condo"
        string_val: "Condo"
        string_val: "Townhouse"
        string_val: "Single Family"
        string_val: "Single Family"
        string_val: "Single Family"
        string_val: "Single Family"
        string_val: "Single Family"
        string_val: "Single Family"
        string_val: "Condo"
        string_val: "Single Family"
        string_val: "Single Family"
        string_val: "Single Family"
        string_val: "Single Family"
        string_val: "Condo"
        string_val: "Single Family"
        string_val: "Single Family"
        string_val: "Condo"
        string_val: "Single Family"
        string_val: "Single Family"
        string_val: "Condo"
        string_val: "Condo"
        string_val: "Condo"
        string_val: "Single Family"
        string_val: "Condo"
        string_val: "Single Family"
        string_val: "Single Family"
        string_val: "Single Family"
        string_val: "Single Family"
        string_val: "Single Family"
        string_val: "Single Family"
        string_val: "Single Family"
        string_val: "Single Family"
        string_val: "Condo"
        string_val: "Single Family"
        string_val: "Single Family"
        string_val: "Condo"
        string_val: "Mobile / Manufactured"
        string_val: "Mobile / Manufactured"
        string_val: "Condo"
        string_val: "Single Family"
        string_val: "Townhouse"
        string_val: "Single Family"
        string_val: "Townhouse"
        string_val: "Single Family"
        string_val: "Single Family"
        string_val: "Single Family"
        string_val: "Condo"
        string_val: "Condo"
        string_val: "Mobile / Manufactured"
        string_val: "Single Family"
        string_val: "Single Family"
        string_val: "Condo"
        string_val: "Single Family"
        string_val: "Single Family"
        string_val: "Single Family"
        string_val: "Condo"
        string_val: "Single Family"
        string_val: "Condo"
        string_val: "Single Family"
        string_val: "Single Family"
        string_val: "Single Family"
        string_val: "Single Family"
        string_val: "Condo"
        string_val: "Mobile / Manufactured"
        string_val: "Single Family"
        string_val: "Single Family"
        string_val: "Single Family"
        string_val: "Single Family"
        string_val: "Townhouse"
        string_val: "Mobile / Manufactured"
        string_val: "Single Family"
        string_val: "Single Family"
        string_val: "Townhouse"
        string_val: "Single Family"
        string_val: "Single Family"
        string_val: "Condo"
        string_val: "Single Family"
        string_val: "Condo"
        string_val: "Single Family"
        string_val: "Single Family"
        string_val: "Single Family"
        string_val: "Single Family"
        string_val: "Single Family"
        string_val: "Condo"
        string_val: "Single Family"
        string_val: "Single Family"
        string_val: "Single Family"
        string_val: "Single Family"
        string_val: "Single Family"
        string_val: "Single Family"
        string_val: "Condo"
        string_val: "Single Family"
        string_val: "Single Family"
        string_val: "Single Family"
        string_val: "Single Family"
        string_val: "Single Family"
        string_val: "Single Family"
        string_val: "Single Family"
        string_val: "Single Family"
        string_val: "Townhouse"
        string_val: "Mobile / Manufactured"
        string_val: "Single Family"
        string_val: "Single Family"
        string_val: "Single Family"
        string_val: "Mobile / Manufactured"
        string_val: "Single Family"
        string_val: "Single Family"
        string_val: "Single Family"
        string_val: "Condo"
        string_val: "Condo"
        string_val: "Single Family"
        string_val: "Single Family"
        string_val: "Condo"
        string_val: "Single Family"
        string_val: "Single Family"
        string_val: "Condo"
        string_val: "Condo"
        string_val: "Single Family"
        string_val: "Single Family"
        string_val: "Single Family"
        string_val: "Condo"
        string_val: "Townhouse"
        string_val: "Single Family"
        string_val: "Single Family"
        string_val: "Single Family"
        string_val: "Single Family"
        string_val: "Condo"
        string_val: "Single Family"
        string_val: "Single Family"
        string_val: "Condo"
        string_val: "Single Family"
        string_val: "Single Family"
        string_val: "Mobile / Manufactured"
        string_val: "Single Family"
        string_val: "Mobile / Manufactured"
        string_val: "Single Family"
        string_val: "Condo"
        string_val: "Single Family"
        string_val: "Single Family"
        string_val: "Single Family"
        string_val: "Single Family"
        string_val: "Condo"
      }
    }
  }
}
node {
  name: "SparseTensor_1/shape"
  op: "Const"
  attr {
    key: "_output_shapes"
    value {
      list {
        shape {
          dim {
            size: 2
          }
        }
      }
    }
  }
  attr {
    key: "dtype"
    value {
      type: DT_INT64
    }
  }
  attr {
    key: "value"
    value {
      tensor {
        dtype: DT_INT64
        tensor_shape {
          dim {
            size: 2
          }
        }
        tensor_content: "|\006\000\000\000\000\000\000\001\000\000\000\000\000\000\000"
      }
    }
  }
}
node {
  name: "Const_3"
  op: "Const"
  attr {
    key: "_output_shapes"
    value {
      list {
        shape {
          dim {
            size: 1660
          }
        }
      }
    }
  }
  attr {
    key: "dtype"
    value {
      type: DT_FLOAT
    }
  }
  attr {
    key: "value"
    value {
      tensor {
        dtype: DT_FLOAT
        tensor_shape {
          dim {
            size: 1660
          }
        }
        tensor_content: "…"
      }
    }
  }
}
node {
  name: "dnn/input_from_feature_columns/input_from_feature_columns/size_bucketized/reshape/shape"
  op: "Const"
  attr {
    key: "_output_shapes"
    value {
      list {
        shape {
          dim {
            size: 2
          }
        }
      }
    }
  }
  attr {
    key: "dtype"
    value {
      type: DT_INT32
    }
  }
  attr {
    key: "value"
    value {
      tensor {
        dtype: DT_INT32
        tensor_shape {
          dim {
            size: 2
          }
        }
        tensor_content: "|\006\000\000\001\000\000\000"
      }
    }
  }
}
node {
  name: "dnn/input_from_feature_columns/input_from_feature_columns/size_bucketized/reshape"
  op: "Reshape"
  input: "Const_2"
  input: "dnn/input_from_feature_columns/input_from_feature_columns/size_bucketized/reshape/shape"
  attr {
    key: "T"
    value {
      type: DT_FLOAT
    }
  }
  attr {
    key: "Tshape"
    value {
      type: DT_INT32
    }
  }
  attr {
    key: "_output_shapes"
    value {
      list {
        shape {
          dim {
            size: 1660
          }
          dim {
            size: 1
          }
        }
      }
    }
  }
}
node {
  name: "dnn/input_from_feature_columns/input_from_feature_columns/size_bucketized/bucketize"
  op: "Bucketize"
  input: "dnn/input_from_feature_columns/input_from_feature_columns/size_bucketized/reshape"
  attr {
    key: "T"
    value {
      type: DT_FLOAT
    }
  }
  attr {
    key: "_output_shapes"
    value {
      list {
        shape {
          unknown_rank: true
        }
      }
    }
  }
  attr {
    key: "boundaries"
    value {
      list {
        f: 0.0
        f: 200.0
        f: 400.0
        f: 600.0
        f: 800.0
        f: 1000.0
        f: 1200.0
        f: 1400.0
        f: 1600.0
        f: 1800.0
        f: 2000.0
        f: 2200.0
        f: 2400.0
        f: 2600.0
        f: 2800.0
        f: 3000.0
        f: 3200.0
        f: 3400.0
        f: 3600.0
        f: 3800.0
        f: 4000.0
        f: 4200.0
        f: 4400.0
        f: 4600.0
        f: 4800.0
        f: 5000.0
        f: 5200.0
        f: 5400.0
        f: 5600.0
        f: 5800.0
      }
    }
  }
}
node {
  name: "dnn/input_from_feature_columns/input_from_feature_columns/size_bucketized/ToInt64"
  op: "Cast"
  input: "dnn/input_from_feature_columns/input_from_feature_columns/size_bucketized/bucketize"
  attr {
    key: "DstT"
    value {
      type: DT_INT64
    }
  }
  attr {
    key: "SrcT"
    value {
      type: DT_INT32
    }
  }
  attr {
    key: "_output_shapes"
    value {
      list {
        shape {
          unknown_rank: true
        }
      }
    }
  }
}
node {
  name: "dnn/input_from_feature_columns/input_from_feature_columns/size_bucketized/one_hot/Const"
  op: "Const"
  attr {
    key: "_output_shapes"
    value {
      list {
        shape {
        }
      }
    }
  }
  attr {
    key: "dtype"
    value {
      type: DT_FLOAT
    }
  }
  attr {
    key: "value"
    value {
      tensor {
        dtype: DT_FLOAT
        tensor_shape {
        }
        float_val: 1.0
      }
    }
  }
}
node {
  name: "dnn/input_from_feature_columns/input_from_feature_columns/size_bucketized/one_hot/Const_1"
  op: "Const"
  attr {
    key: "_output_shapes"
    value {
      list {
        shape {
        }
      }
    }
  }
  attr {
    key: "dtype"
    value {
      type: DT_FLOAT
    }
  }
  attr {
    key: "value"
    value {
      tensor {
        dtype: DT_FLOAT
        tensor_shape {
        }
        float_val: 0.0
      }
    }
  }
}
node {
  name: "dnn/input_from_feature_columns/input_from_feature_columns/size_bucketized/one_hot/depth"
  op: "Const"
  attr {
    key: "_output_shapes"
    value {
      list {
        shape {
        }
      }
    }
  }
  attr {
    key: "dtype"
    value {
      type: DT_INT32
    }
  }
  attr {
    key: "value"
    value {
      tensor {
        dtype: DT_INT32
        tensor_shape {
        }
        int_val: 31
      }
    }
  }
}
node {
  name: "dnn/input_from_feature_columns/input_from_feature_columns/size_bucketized/one_hot/on_value"
  op: "Const"
  attr {
    key: "_output_shapes"
    value {
      list {
        shape {
        }
      }
    }
  }
  attr {
    key: "dtype"
    value {
      type: DT_FLOAT
    }
  }
  attr {
    key: "value"
    value {
      tensor {
        dtype: DT_FLOAT
        tensor_shape {
        }
        float_val: 1.0
      }
    }
  }
}
node {
  name: "dnn/input_from_feature_columns/input_from_feature_columns/size_bucketized/one_hot/off_value"
  op: "Const"
  attr {
    key: "_output_shapes"
    value {
      list {
        shape {
        }
      }
    }
  }
  attr {
    key: "dtype"
    value {
      type: DT_FLOAT
    }
  }
  attr {
    key: "value"
    value {
      tensor {
        dtype: DT_FLOAT
        tensor_shape {
        }
        float_val: 0.0
      }
    }
  }
}
node {
  name: "dnn/input_from_feature_columns/input_from_feature_columns/size_bucketized/one_hot"
  op: "OneHot"
  input: "dnn/input_from_feature_columns/input_from_feature_columns/size_bucketized/ToInt64"
  input: "dnn/input_from_feature_columns/input_from_feature_columns/size_bucketized/one_hot/depth"
  input: "dnn/input_from_feature_columns/input_from_feature_columns/size_bucketized/one_hot/on_value"
  input: "dnn/input_from_feature_columns/input_from_feature_columns/size_bucketized/one_hot/off_value"
  attr {
    key: "T"
    value {
      type: DT_FLOAT
    }
  }
  attr {
    key: "TI"
    value {
      type: DT_INT64
    }
  }
  attr {
    key: "_output_shapes"
    value {
      list {
        shape {
          unknown_rank: true
        }
      }
    }
  }
  attr {
    key: "axis"
    value {
      i: -1
    }
  }
}
node {
  name: "dnn/input_from_feature_columns/input_from_feature_columns/size_bucketized/reshape_1/shape"
  op: "Const"
  attr {
    key: "_output_shapes"
    value {
      list {
        shape {
          dim {
            size: 2
          }
        }
      }
    }
  }
  attr {
    key: "dtype"
    value {
      type: DT_INT32
    }
  }
  attr {
    key: "value"
    value {
      tensor {
        dtype: DT_INT32
        tensor_shape {
          dim {
            size: 2
          }
        }
        tensor_content: "\377\377\377\377\037\000\000\000"
      }
    }
  }
}
node {
  name: "dnn/input_from_feature_columns/input_from_feature_columns/size_bucketized/reshape_1"
  op: "Reshape"
  input: "dnn/input_from_feature_columns/input_from_feature_columns/size_bucketized/one_hot"
  input: "dnn/input_from_feature_columns/input_from_feature_columns/size_bucketized/reshape_1/shape"
  attr {
    key: "T"
    value {
      type: DT_FLOAT
    }
  }
  attr {
    key: "Tshape"
    value {
      type: DT_INT32
    }
  }
  attr {
    key: "_output_shapes"
    value {
      list {
        shape {
          dim {
            size: -1
          }
          dim {
            size: 31
          }
        }
      }
    }
  }
}
node {
  name: "dnn/input_from_feature_columns/input_from_feature_columns/property_type_embedding/lookup/Const"
  op: "Const"
  attr {
    key: "_output_shapes"
    value {
      list {
        shape {
          dim {
            size: 6
          }
        }
      }
    }
  }
  attr {
    key: "dtype"
    value {
      type: DT_STRING
    }
  }
  attr {
    key: "value"
    value {
      tensor {
        dtype: DT_STRING
        tensor_shape {
          dim {
            size: 6
          }
        }
        string_val: "Single Family"
        string_val: "Multi Family"
        string_val: "Cooperative"
        string_val: "Condo"
        string_val: "Mobile / Manufactured"
        string_val: "Townhouse"
      }
    }
  }
}
node {
  name: "dnn/input_from_feature_columns/input_from_feature_columns/property_type_embedding/lookup/Size"
  op: "Const"
  attr {
    key: "_output_shapes"
    value {
      list {
        shape {
        }
      }
    }
  }
  attr {
    key: "dtype"
    value {
      type: DT_INT32
    }
  }
  attr {
    key: "value"
    value {
      tensor {
        dtype: DT_INT32
        tensor_shape {
        }
        int_val: 6
      }
    }
  }
}
node {
  name: "dnn/input_from_feature_columns/input_from_feature_columns/property_type_embedding/lookup/range/start"
  op: "Const"
  attr {
    key: "_output_shapes"
    value {
      list {
        shape {
        }
      }
    }
  }
  attr {
    key: "dtype"
    value {
      type: DT_INT32
    }
  }
  attr {
    key: "value"
    value {
      tensor {
        dtype: DT_INT32
        tensor_shape {
        }
        int_val: 0
      }
    }
  }
}
node {
  name: "dnn/input_from_feature_columns/input_from_feature_columns/property_type_embedding/lookup/range/delta"
  op: "Const"
  attr {
    key: "_output_shapes"
    value {
      list {
        shape {
        }
      }
    }
  }
  attr {
    key: "dtype"
    value {
      type: DT_INT32
    }
  }
  attr {
    key: "value"
    value {
      tensor {
        dtype: DT_INT32
        tensor_shape {
        }
        int_val: 1
      }
    }
  }
}
node {
  name: "dnn/input_from_feature_columns/input_from_feature_columns/property_type_embedding/lookup/range"
  op: "Range"
  input: "dnn/input_from_feature_columns/input_from_feature_columns/property_type_embedding/lookup/range/start"
  input: "dnn/input_from_feature_columns/input_from_feature_columns/property_type_embedding/lookup/Size"
  input: "dnn/input_from_feature_columns/input_from_feature_columns/property_type_embedding/lookup/range/delta"
  attr {
    key: "Tidx"
    value {
      type: DT_INT32
    }
  }
  attr {
    key: "_output_shapes"
    value {
      list {
        shape {
          dim {
            size: 6
          }
        }
      }
    }
  }
}
node {
  name: "dnn/input_from_feature_columns/input_from_feature_columns/property_type_embedding/lookup/Cast"
  op: "Cast"
  input: "dnn/input_from_feature_columns/input_from_feature_columns/property_type_embedding/lookup/range"
  attr {
    key: "DstT"
    value {
      type: DT_INT64
    }
  }
  attr {
    key: "SrcT"
    value {
      type: DT_INT32
    }
  }
  attr {
    key: "_output_shapes"
    value {
      list {
        shape {
          dim {
            size: 6
          }
        }
      }
    }
  }
}
node {
  name: "dnn/input_from_feature_columns/input_from_feature_columns/property_type_embedding/lookup/hash_table/hash_table"
  op: "HashTable"
  attr {
    key: "_output_shapes"
    value {
      list {
        shape {
          dim {
            size: 2
          }
        }
      }
    }
  }
  attr {
    key: "container"
    value {
      s: ""
    }
  }
  attr {
    key: "key_dtype"
    value {
      type: DT_STRING
    }
  }
  attr {
    key: "shared_name"
    value {
      s: ""
    }
  }
  attr {
    key: "use_node_name_sharing"
    value {
      b: false
    }
  }
  attr {
    key: "value_dtype"
    value {
      type: DT_INT64
    }
  }
}
node {
  name: "dnn/input_from_feature_columns/input_from_feature_columns/property_type_embedding/lookup/hash_table/Const"
  op: "Const"
  attr {
    key: "_output_shapes"
    value {
      list {
        shape {
        }
      }
    }
  }
  attr {
    key: "dtype"
    value {
      type: DT_INT64
    }
  }
  attr {
    key: "value"
    value {
      tensor {
        dtype: DT_INT64
        tensor_shape {
        }
        int64_val: -1
      }
    }
  }
}
node {
  name: "dnn/input_from_feature_columns/input_from_feature_columns/property_type_embedding/lookup/table_init"
  op: "InitializeTable"
  input: "dnn/input_from_feature_columns/input_from_feature_columns/property_type_embedding/lookup/hash_table/hash_table"
  input: "dnn/input_from_feature_columns/input_from_feature_columns/property_type_embedding/lookup/Const"
  input: "dnn/input_from_feature_columns/input_from_feature_columns/property_type_embedding/lookup/Cast"
  attr {
    key: "Tkey"
    value {
      type: DT_STRING
    }
  }
  attr {
    key: "Tval"
    value {
      type: DT_INT64
    }
  }
  attr {
    key: "_class"
    value {
      list {
        s: "loc:@dnn/input_from_feature_columns/input_from_feature_columns/property_type_embedding/lookup/hash_table/hash_table"
      }
    }
  }
}
node {
  name: "dnn/input_from_feature_columns/input_from_feature_columns/property_type_embedding/lookup"
  op: "LookupTableFind"
  input: "dnn/input_from_feature_columns/input_from_feature_columns/property_type_embedding/lookup/hash_table/hash_table"
  input: "SparseTensor_1/values"
  input: "dnn/input_from_feature_columns/input_from_feature_columns/property_type_embedding/lookup/hash_table/Const"
  attr {
    key: "Tin"
    value {
      type: DT_STRING
    }
  }
  attr {
    key: "Tout"
    value {
      type: DT_INT64
    }
  }
  attr {
    key: "_class"
    value {
      list {
        s: "loc:@dnn/input_from_feature_columns/input_from_feature_columns/property_type_embedding/lookup/hash_table/hash_table"
      }
    }
  }
  attr {
    key: "_output_shapes"
    value {
      list {
        shape {
          dim {
            size: 1660
          }
        }
      }
    }
  }
}
node {
  name: "dnn/input_from_feature_columns/property_type_embedding/weights/part_0"
  op: "Variable"
  attr {
    key: "_output_shapes"
    value {
      list {
        shape {
          dim {
            size: 6
          }
          dim {
            size: 10
          }
        }
      }
    }
  }
  attr {
    key: "container"
    value {
      s: ""
    }
  }
  attr {
    key: "dtype"
    value {
      type: DT_FLOAT
    }
  }
  attr {
    key: "shape"
    value {
      shape {
        dim {
          size: 6
        }
        dim {
          size: 10
        }
      }
    }
  }
  attr {
    key: "shared_name"
    value {
      s: ""
    }
  }
}
node {
  name: "dnn/input_from_feature_columns/property_type_embedding/weights/part_0/Initializer/truncated_normal/shape"
  op: "Const"
  attr {
    key: "_class"
    value {
      list {
        s: "loc:@dnn/input_from_feature_columns/property_type_embedding/weights/part_0"
      }
    }
  }
  attr {
    key: "_output_shapes"
    value {
      list {
        shape {
          dim {
            size: 2
          }
        }
      }
    }
  }
  attr {
    key: "dtype"
    value {
      type: DT_INT32
    }
  }
  attr {
    key: "value"
    value {
      tensor {
        dtype: DT_INT32
        tensor_shape {
          dim {
            size: 2
          }
        }
        tensor_content: "\006\000\000\000\n\000\000\000"
      }
    }
  }
}
node {
  name: "dnn/input_from_feature_columns/property_type_embedding/weights/part_0/Initializer/truncated_normal/mean"
  op: "Const"
  attr {
    key: "_class"
    value {
      list {
        s: "loc:@dnn/input_from_feature_columns/property_type_embedding/weights/part_0"
      }
    }
  }
  attr {
    key: "_output_shapes"
    value {
      list {
        shape {
        }
      }
    }
  }
  attr {
    key: "dtype"
    value {
      type: DT_FLOAT
    }
  }
  attr {
    key: "value"
    value {
      tensor {
        dtype: DT_FLOAT
        tensor_shape {
        }
        float_val: 0.0
      }
    }
  }
}
node {
  name: "dnn/input_from_feature_columns/property_type_embedding/weights/part_0/Initializer/truncated_normal/stddev"
  op: "Const"
  attr {
    key: "_class"
    value {
      list {
        s: "loc:@dnn/input_from_feature_columns/property_type_embedding/weights/part_0"
      }
    }
  }
  attr {
    key: "_output_shapes"
    value {
      list {
        shape {
        }
      }
    }
  }
  attr {
    key: "dtype"
    value {
      type: DT_FLOAT
    }
  }
  attr {
    key: "value"
    value {
      tensor {
        dtype: DT_FLOAT
        tensor_shape {
        }
        float_val: 0.408248305321
      }
    }
  }
}
node {
  name: "dnn/input_from_feature_columns/property_type_embedding/weights/part_0/Initializer/truncated_normal/TruncatedNormal"
  op: "TruncatedNormal"
  input: "dnn/input_from_feature_columns/property_type_embedding/weights/part_0/Initializer/truncated_normal/shape"
  attr {
    key: "T"
    value {
      type: DT_INT32
    }
  }
  attr {
    key: "_class"
    value {
      list {
        s: "loc:@dnn/input_from_feature_columns/property_type_embedding/weights/part_0"
      }
    }
  }
  attr {
    key: "_output_shapes"
    value {
      list {
        shape {
          dim {
            size: 6
          }
          dim {
            size: 10
          }
        }
      }
    }
  }
  attr {
    key: "dtype"
    value {
      type: DT_FLOAT
    }
  }
  attr {
    key: "seed"
    value {
      i: 0
    }
  }
  attr {
    key: "seed2"
    value {
      i: 0
    }
  }
}
node {
  name: "dnn/input_from_feature_columns/property_type_embedding/weights/part_0/Initializer/truncated_normal/mul"
  op: "Mul"
  input: "dnn/input_from_feature_columns/property_type_embedding/weights/part_0/Initializer/truncated_normal/TruncatedNormal"
  input: "dnn/input_from_feature_columns/property_type_embedding/weights/part_0/Initializer/truncated_normal/stddev"
  attr {
    key: "T"
    value {
      type: DT_FLOAT
    }
  }
  attr {
    key: "_class"
    value {
      list {
        s: "loc:@dnn/input_from_feature_columns/property_type_embedding/weights/part_0"
      }
    }
  }
  attr {
    key: "_output_shapes"
    value {
      list {
        shape {
          dim {
            size: 6
          }
          dim {
            size: 10
          }
        }
      }
    }
  }
}
node {
  name: "dnn/input_from_feature_columns/property_type_embedding/weights/part_0/Initializer/truncated_normal"
  op: "Add"
  input: "dnn/input_from_feature_columns/property_type_embedding/weights/part_0/Initializer/truncated_normal/mul"
  input: "dnn/input_from_feature_columns/property_type_embedding/weights/part_0/Initializer/truncated_normal/mean"
  attr {
    key: "T"
    value {
      type: DT_FLOAT
    }
  }
  attr {
    key: "_class"
    value {
      list {
        s: "loc:@dnn/input_from_feature_columns/property_type_embedding/weights/part_0"
      }
    }
  }
  attr {
    key: "_output_shapes"
    value {
      list {
        shape {
          dim {
            size: 6
          }
          dim {
            size: 10
          }
        }
      }
    }
  }
}
node {
  name: "dnn/input_from_feature_columns/property_type_embedding/weights/part_0/Assign"
  op: "Assign"
  input: "dnn/input_from_feature_columns/property_type_embedding/weights/part_0"
  input: "dnn/input_from_feature_columns/property_type_embedding/weights/part_0/Initializer/truncated_normal"
  attr {
    key: "T"
    value {
      type: DT_FLOAT
    }
  }
  attr {
    key: "_class"
    value {
      list {
        s: "loc:@dnn/input_from_feature_columns/property_type_embedding/weights/part_0"
      }
    }
  }
  attr {
    key: "_output_shapes"
    value {
      list {
        shape {
          dim {
            size: 6
          }
          dim {
            size: 10
          }
        }
      }
    }
  }
  attr {
    key: "use_locking"
    value {
      b: true
    }
  }
  attr {
    key: "validate_shape"
    value {
      b: true
    }
  }
}
node {
  name: "dnn/input_from_feature_columns/property_type_embedding/weights/part_0/read"
  op: "Identity"
  input: "dnn/input_from_feature_columns/property_type_embedding/weights/part_0"
  attr {
    key: "T"
    value {
      type: DT_FLOAT
    }
  }
  attr {
    key: "_class"
    value {
      list {
        s: "loc:@dnn/input_from_feature_columns/property_type_embedding/weights/part_0"
      }
    }
  }
  attr {
    key: "_output_shapes"
    value {
      list {
        shape {
          dim {
            size: 6
          }
          dim {
            size: 10
          }
        }
      }
    }
  }
}
node {
  name: "dnn/input_from_feature_columns/input_from_feature_columns/property_type_embedding/embedding_lookup/Slice/begin"
  op: "Const"
  attr {
    key: "_output_shapes"
    value {
      list {
        shape {
          dim {
            size: 1
          }
        }
      }
    }
  }
  attr {
    key: "dtype"
    value {
      type: DT_INT32
    }
  }
  attr {
    key: "value"
    value {
      tensor {
        dtype: DT_INT32
        tensor_shape {
          dim {
            size: 1
          }
        }
        int_val: 0
      }
    }
  }
}
node {
  name: "dnn/input_from_feature_columns/input_from_feature_columns/property_type_embedding/embedding_lookup/Slice/size"
  op: "Const"
  attr {
    key: "_output_shapes"
    value {
      list {
        shape {
          dim {
            size: 1
          }
        }
      }
    }
  }
  attr {
    key: "dtype"
    value {
      type: DT_INT32
    }
  }
  attr {
    key: "value"
    value {
      tensor {
        dtype: DT_INT32
        tensor_shape {
          dim {
            size: 1
          }
        }
        int_val: 1
      }
    }
  }
}
node {
  name: "dnn/input_from_feature_columns/input_from_feature_columns/property_type_embedding/embedding_lookup/Slice"
  op: "Slice"
  input: "SparseTensor_1/shape"
  input: "dnn/input_from_feature_columns/input_from_feature_columns/property_type_embedding/embedding_lookup/Slice/begin"
  input: "dnn/input_from_feature_columns/input_from_feature_columns/property_type_embedding/embedding_lookup/Slice/size"
  attr {
    key: "Index"
    value {
      type: DT_INT32
    }
  }
  attr {
    key: "T"
    value {
      type: DT_INT64
    }
  }
  attr {
    key: "_output_shapes"
    value {
      list {
        shape {
          dim {
            size: 1
          }
        }
      }
    }
  }
}
node {
  name: "dnn/input_from_feature_columns/input_from_feature_columns/property_type_embedding/embedding_lookup/Const"
  op: "Const"
  attr {
    key: "_output_shapes"
    value {
      list {
        shape {
          dim {
            size: 1
          }
        }
      }
    }
  }
  attr {
    key: "dtype"
    value {
      type: DT_INT32
    }
  }
  attr {
    key: "value"
    value {
      tensor {
        dtype: DT_INT32
        tensor_shape {
          dim {
            size: 1
          }
        }
        int_val: 0
      }
    }
  }
}
node {
  name: "dnn/input_from_feature_columns/input_from_feature_columns/property_type_embedding/embedding_lookup/Prod"
  op: "Prod"
  input: "dnn/input_from_feature_columns/input_from_feature_columns/property_type_embedding/embedding_lookup/Slice"
  input: "dnn/input_from_feature_columns/input_from_feature_columns/property_type_embedding/embedding_lookup/Const"
  attr {
    key: "T"
    value {
      type: DT_INT64
    }
  }
  attr {
    key: "Tidx"
    value {
      type: DT_INT32
    }
  }
  attr {
    key: "_output_shapes"
    value {
      list {
        shape {
        }
      }
    }
  }
  attr {
    key: "keep_dims"
    value {
      b: false
    }
  }
}
node {
  name: "dnn/input_from_feature_columns/input_from_feature_columns/property_type_embedding/embedding_lookup/Gather/indices"
  op: "Const"
  attr {
    key: "_output_shapes"
    value {
      list {
        shape {
        }
      }
    }
  }
  attr {
    key: "dtype"
    value {
      type: DT_INT32
    }
  }
  attr {
    key: "value"
    value {
      tensor {
        dtype: DT_INT32
        tensor_shape {
        }
        int_val: 1
      }
    }
  }
}
node {
  name: "dnn/input_from_feature_columns/input_from_feature_columns/property_type_embedding/embedding_lookup/Gather"
  op: "Gather"
  input: "SparseTensor_1/shape"
  input: "dnn/input_from_feature_columns/input_from_feature_columns/property_type_embedding/embedding_lookup/Gather/indices"
  attr {
    key: "Tindices"
    value {
      type: DT_INT32
    }
  }
  attr {
    key: "Tparams"
    value {
      type: DT_INT64
    }
  }
  attr {
    key: "_output_shapes"
    value {
      list {
        shape {
        }
      }
    }
  }
  attr {
    key: "validate_indices"
    value {
      b: true
    }
  }
}
node {
  name: "dnn/input_from_feature_columns/input_from_feature_columns/property_type_embedding/embedding_lookup/SparseReshape/new_shape"
  op: "Pack"
  input: "dnn/input_from_feature_columns/input_from_feature_columns/property_type_embedding/embedding_lookup/Prod"
  input: "dnn/input_from_feature_columns/input_from_feature_columns/property_type_embedding/embedding_lookup/Gather"
  attr {
    key: "N"
    value {
      i: 2
    }
  }
  attr {
    key: "T"
    value {
      type: DT_INT64
    }
  }
  attr {
    key: "_output_shapes"
    value {
      list {
        shape {
          dim {
            size: 2
          }
        }
      }
    }
  }
  attr {
    key: "axis"
    value {
      i: 0
    }
  }
}
node {
  name: "dnn/input_from_feature_columns/input_from_feature_columns/property_type_embedding/embedding_lookup/SparseReshape"
  op: "SparseReshape"
  input: "SparseTensor_1/indices"
  input: "SparseTensor_1/shape"
  input: "dnn/input_from_feature_columns/input_from_feature_columns/property_type_embedding/embedding_lookup/SparseReshape/new_shape"
  attr {
    key: "_output_shapes"
    value {
      list {
        shape {
          dim {
            size: 1660
          }
          dim {
            size: 2
          }
        }
        shape {
          dim {
            size: 2
          }
        }
      }
    }
  }
}
node {
  name: "dnn/input_from_feature_columns/input_from_feature_columns/property_type_embedding/embedding_lookup/SparseReshape/Identity"
  op: "Identity"
  input: "dnn/input_from_feature_columns/input_from_feature_columns/property_type_embedding/lookup"
  attr {
    key: "T"
    value {
      type: DT_INT64
    }
  }
  attr {
    key: "_output_shapes"
    value {
      list {
        shape {
          dim {
            size: 1660
          }
        }
      }
    }
  }
}
node {
  name: "dnn/input_from_feature_columns/input_from_feature_columns/property_type_embedding/embedding_lookup/GreaterEqual/y"
  op: "Const"
  attr {
    key: "_output_shapes"
    value {
      list {
        shape {
        }
      }
    }
  }
  attr {
    key: "dtype"
    value {
      type: DT_INT64
    }
  }
  attr {
    key: "value"
    value {
      tensor {
        dtype: DT_INT64
        tensor_shape {
        }
        int64_val: 0
      }
    }
  }
}
node {
  name: "dnn/input_from_feature_columns/input_from_feature_columns/property_type_embedding/embedding_lookup/GreaterEqual"
  op: "GreaterEqual"
  input: "dnn/input_from_feature_columns/input_from_feature_columns/property_type_embedding/embedding_lookup/SparseReshape/Identity"
  input: "dnn/input_from_feature_columns/input_from_feature_columns/property_type_embedding/embedding_lookup/GreaterEqual/y"
  attr {
    key: "T"
    value {
      type: DT_INT64
    }
  }
  attr {
    key: "_output_shapes"
    value {
      list {
        shape {
          dim {
            size: 1660
          }
        }
      }
    }
  }
}
node {
  name: "dnn/input_from_feature_columns/input_from_feature_columns/property_type_embedding/embedding_lookup/Where"
  op: "Where"
  input: "dnn/input_from_feature_columns/input_from_feature_columns/property_type_embedding/embedding_lookup/GreaterEqual"
  attr {
    key: "_output_shapes"
    value {
      list {
        shape {
          dim {
            size: -1
          }
          dim {
            size: 1
          }
        }
      }
    }
  }
}
node {
  name: "dnn/input_from_feature_columns/input_from_feature_columns/property_type_embedding/embedding_lookup/Reshape/shape"
  op: "Const"
  attr {
    key: "_output_shapes"
    value {
      list {
        shape {
          dim {
            size: 1
          }
        }
      }
    }
  }
  attr {
    key: "dtype"
    value {
      type: DT_INT32
    }
  }
  attr {
    key: "value"
    value {
      tensor {
        dtype: DT_INT32
        tensor_shape {
          dim {
            size: 1
          }
        }
        int_val: -1
      }
    }
  }
}
node {
  name: "dnn/input_from_feature_columns/input_from_feature_columns/property_type_embedding/embedding_lookup/Reshape"
  op: "Reshape"
  input: "dnn/input_from_feature_columns/input_from_feature_columns/property_type_embedding/embedding_lookup/Where"
  input: "dnn/input_from_feature_columns/input_from_feature_columns/property_type_embedding/embedding_lookup/Reshape/shape"
  attr {
    key: "T"
    value {
      type: DT_INT64
    }
  }
  attr {
    key: "Tshape"
    value {
      type: DT_INT32
    }
  }
  attr {
    key: "_output_shapes"
    value {
      list {
        shape {
          dim {
            size: -1
          }
        }
      }
    }
  }
}
node {
  name: "dnn/input_from_feature_columns/input_from_feature_columns/property_type_embedding/embedding_lookup/Gather_1"
  op: "Gather"
  input: "dnn/input_from_feature_columns/input_from_feature_columns/property_type_embedding/embedding_lookup/SparseReshape"
  input: "dnn/input_from_feature_columns/input_from_feature_columns/property_type_embedding/embedding_lookup/Reshape"
  attr {
    key: "Tindices"
    value {
      type: DT_INT64
    }
  }
  attr {
    key: "Tparams"
    value {
      type: DT_INT64
    }
  }
  attr {
    key: "_output_shapes"
    value {
      list {
        shape {
          dim {
            size: -1
          }
          dim {
            size: 2
          }
        }
      }
    }
  }
  attr {
    key: "validate_indices"
    value {
      b: true
    }
  }
}
node {
  name: "dnn/input_from_feature_columns/input_from_feature_columns/property_type_embedding/embedding_lookup/Gather_2"
  op: "Gather"
  input: "dnn/input_from_feature_columns/input_from_feature_columns/property_type_embedding/embedding_lookup/SparseReshape/Identity"
  input: "dnn/input_from_feature_columns/input_from_feature_columns/property_type_embedding/embedding_lookup/Reshape"
  attr {
    key: "Tindices"
    value {
      type: DT_INT64
    }
  }
  attr {
    key: "Tparams"
    value {
      type: DT_INT64
    }
  }
  attr {
    key: "_output_shapes"
    value {
      list {
        shape {
          dim {
            size: -1
          }
        }
      }
    }
  }
  attr {
    key: "validate_indices"
    value {
      b: true
    }
  }
}
node {
  name: "dnn/input_from_feature_columns/input_from_feature_columns/property_type_embedding/embedding_lookup/Identity"
  op: "Identity"
  input: "dnn/input_from_feature_columns/input_from_feature_columns/property_type_embedding/embedding_lookup/SparseReshape:1"
  attr {
    key: "T"
    value {
      type: DT_INT64
    }
  }
  attr {
    key: "_output_shapes"
    value {
      list {
        shape {
          dim {
            size: 2
          }
        }
      }
    }
  }
}
node {
  name: "dnn/input_from_feature_columns/input_from_feature_columns/property_type_embedding/embedding_lookup/SparseFillEmptyRows/Const"
  op: "Const"
  attr {
    key: "_output_shapes"
    value {
      list {
        shape {
        }
      }
    }
  }
  attr {
    key: "dtype"
    value {
      type: DT_INT64
    }
  }
  attr {
    key: "value"
    value {
      tensor {
        dtype: DT_INT64
        tensor_shape {
        }
        int64_val: 0
      }
    }
  }
}
node {
  name: "dnn/input_from_feature_columns/input_from_feature_columns/property_type_embedding/embedding_lookup/SparseFillEmptyRows/strided_slice/pack"
  op: "Const"
  attr {
    key: "_output_shapes"
    value {
      list {
        shape {
          dim {
            size: 1
          }
        }
      }
    }
  }
  attr {
    key: "dtype"
    value {
      type: DT_INT32
    }
  }
  attr {
    key: "value"
    value {
      tensor {
        dtype: DT_INT32
        tensor_shape {
          dim {
            size: 1
          }
        }
        int_val: 0
      }
    }
  }
}
node {
  name: "dnn/input_from_feature_columns/input_from_feature_columns/property_type_embedding/embedding_lookup/SparseFillEmptyRows/strided_slice/pack_1"
  op: "Const"
  attr {
    key: "_output_shapes"
    value {
      list {
        shape {
          dim {
            size: 1
          }
        }
      }
    }
  }
  attr {
    key: "dtype"
    value {
      type: DT_INT32
    }
  }
  attr {
    key: "value"
    value {
      tensor {
        dtype: DT_INT32
        tensor_shape {
          dim {
            size: 1
          }
        }
        int_val: 1
      }
    }
  }
}
node {
  name: "dnn/input_from_feature_columns/input_from_feature_columns/property_type_embedding/embedding_lookup/SparseFillEmptyRows/strided_slice/pack_2"
  op: "Const"
  attr {
    key: "_output_shapes"
    value {
      list {
        shape {
          dim {
            size: 1
          }
        }
      }
    }
  }
  attr {
    key: "dtype"
    value {
      type: DT_INT32
    }
  }
  attr {
    key: "value"
    value {
      tensor {
        dtype: DT_INT32
        tensor_shape {
          dim {
            size: 1
          }
        }
        int_val: 1
      }
    }
  }
}
node {
  name: "dnn/input_from_feature_columns/input_from_feature_columns/property_type_embedding/embedding_lookup/SparseFillEmptyRows/strided_slice"
  op: "StridedSlice"
  input: "dnn/input_from_feature_columns/input_from_feature_columns/property_type_embedding/embedding_lookup/Identity"
  input: "dnn/input_from_feature_columns/input_from_feature_columns/property_type_embedding/embedding_lookup/SparseFillEmptyRows/strided_slice/pack"
  input: "dnn/input_from_feature_columns/input_from_feature_columns/property_type_embedding/embedding_lookup/SparseFillEmptyRows/strided_slice/pack_1"
  input: "dnn/input_from_feature_columns/input_from_feature_columns/property_type_embedding/embedding_lookup/SparseFillEmptyRows/strided_slice/pack_2"
  attr {
    key: "Index"
    value {
      type: DT_INT32
    }
  }
  attr {
    key: "T"
    value {
      type: DT_INT64
    }
  }
  attr {
    key: "_output_shapes"
    value {
      list {
        shape {
        }
      }
    }
  }
  attr {
    key: "begin_mask"
    value {
      i: 0
    }
  }
  attr {
    key: "ellipsis_mask"
    value {
      i: 0
    }
  }
  attr {
    key: "end_mask"
    value {
      i: 0
    }
  }
  attr {
    key: "new_axis_mask"
    value {
      i: 0
    }
  }
  attr {
    key: "shrink_axis_mask"
    value {
      i: 1
    }
  }
}
node {
  name: "dnn/input_from_feature_columns/input_from_feature_columns/property_type_embedding/embedding_lookup/SparseFillEmptyRows/Cast"
  op: "Cast"
  input: "dnn/input_from_feature_columns/input_from_feature_columns/property_type_embedding/embedding_lookup/SparseFillEmptyRows/strided_slice"
  attr {
    key: "DstT"
    value {
      type: DT_INT32
    }
  }
  attr {
    key: "SrcT"
    value {
      type: DT_INT64
    }
  }
  attr {
    key: "_output_shapes"
    value {
      list {
        shape {
        }
      }
    }
  }
}
node {
  name: "dnn/input_from_feature_columns/input_from_feature_columns/property_type_embedding/embedding_lookup/SparseFillEmptyRows/range/start"
  op: "Const"
  attr {
    key: "_output_shapes"
    value {
      list {
        shape {
        }
      }
    }
  }
  attr {
    key: "dtype"
    value {
      type: DT_INT32
    }
  }
  attr {
    key: "value"
    value {
      tensor {
        dtype: DT_INT32
        tensor_shape {
        }
        int_val: 0
      }
    }
  }
}
node {
  name: "dnn/input_from_feature_columns/input_from_feature_columns/property_type_embedding/embedding_lookup/SparseFillEmptyRows/range/delta"
  op: "Const"
  attr {
    key: "_output_shapes"
    value {
      list {
        shape {
        }
      }
    }
  }
  attr {
    key: "dtype"
    value {
      type: DT_INT32
    }
  }
  attr {
    key: "value"
    value {
      tensor {
        dtype: DT_INT32
        tensor_shape {
        }
        int_val: 1
      }
    }
  }
}
node {
  name: "dnn/input_from_feature_columns/input_from_feature_columns/property_type_embedding/embedding_lookup/SparseFillEmptyRows/range"
  op: "Range"
  input: "dnn/input_from_feature_columns/input_from_feature_columns/property_type_embedding/embedding_lookup/SparseFillEmptyRows/range/start"
  input: "dnn/input_from_feature_columns/input_from_feature_columns/property_type_embedding/embedding_lookup/SparseFillEmptyRows/Cast"
  input: "dnn/input_from_feature_columns/input_from_feature_columns/property_type_embedding/embedding_lookup/SparseFillEmptyRows/range/delta"
  attr {
    key: "Tidx"
    value {
      type: DT_INT32
    }
  }
  attr {
    key: "_output_shapes"
    value {
      list {
        shape {
          dim {
            size: -1
          }
        }
      }
    }
  }
}
node {
  name: "dnn/input_from_feature_columns/input_from_feature_columns/property_type_embedding/embedding_lookup/SparseFillEmptyRows/Cast_1"
  op: "Cast"
  input: "dnn/input_from_feature_columns/input_from_feature_columns/property_type_embedding/embedding_lookup/SparseFillEmptyRows/range"
  attr {
    key: "DstT"
    value {
      type: DT_INT64
    }
  }
  attr {
    key: "SrcT"
    value {
      type: DT_INT32
    }
  }
  attr {
    key: "_output_shapes"
    value {
      list {
        shape {
          dim {
            size: -1
          }
        }
      }
    }
  }
}
node {
  name: "dnn/input_from_feature_columns/input_from_feature_columns/property_type_embedding/embedding_lookup/SparseFillEmptyRows/strided_slice_1/pack"
  op: "Const"
  attr {
    key: "_output_shapes"
    value {
      list {
        shape {
          dim {
            size: 2
          }
        }
      }
    }
  }
  attr {
    key: "dtype"
    value {
      type: DT_INT32
    }
  }
  attr {
    key: "value"
    value {
      tensor {
        dtype: DT_INT32
        tensor_shape {
          dim {
            size: 2
          }
        }
        tensor_content: "\000\000\000\000\000\000\000\000"
      }
    }
  }
}
node {
  name: "dnn/input_from_feature_columns/input_from_feature_columns/property_type_embedding/embedding_lookup/SparseFillEmptyRows/strided_slice_1/pack_1"
  op: "Const"
  attr {
    key: "_output_shapes"
    value {
      list {
        shape {
          dim {
            size: 2
          }
        }
      }
    }
  }
  attr {
    key: "dtype"
    value {
      type: DT_INT32
    }
  }
  attr {
    key: "value"
    value {
      tensor {
        dtype: DT_INT32
        tensor_shape {
          dim {
            size: 2
          }
        }
        tensor_content: "\000\000\000\000\001\000\000\000"
      }
    }
  }
}
node {
…
  input: "report_uninitialized_variables/IsVariableInitialized_5"
  input: "report_uninitialized_variables/IsVariableInitialized_6"
  input: "report_uninitialized_variables/IsVariableInitialized_7"
  input: "report_uninitialized_variables/IsVariableInitialized_8"
  input: "report_uninitialized_variables/IsVariableInitialized_9"
  input: "report_uninitialized_variables/IsVariableInitialized_10"
  input: "report_uninitialized_variables/IsVariableInitialized_11"
  input: "report_uninitialized_variables/IsVariableInitialized_12"
  input: "report_uninitialized_variables/IsVariableInitialized_13"
  input: "report_uninitialized_variables/IsVariableInitialized_14"
  input: "report_uninitialized_variables/IsVariableInitialized_15"
  input: "report_uninitialized_variables/IsVariableInitialized_16"
  attr {
    key: "N"
    value {
      i: 17
    }
  }
  attr {
    key: "T"
    value {
      type: DT_BOOL
    }
  }
  attr {
    key: "_output_shapes"
    value {
      list {
        shape {
          dim {
            size: 17
          }
        }
      }
    }
  }
  attr {
    key: "axis"
    value {
      i: 0
    }
  }
}
node {
  name: "report_uninitialized_variables/LogicalNot"
  op: "LogicalNot"
  input: "report_uninitialized_variables/pack"
  attr {
    key: "_output_shapes"
    value {
      list {
        shape {
          dim {
            size: 17
          }
        }
      }
    }
  }
}
node {
  name: "report_uninitialized_variables/Const"
  op: "Const"
  attr {
    key: "_output_shapes"
    value {
      list {
        shape {
          dim {
            size: 17
          }
        }
      }
    }
  }
  attr {
    key: "dtype"
    value {
      type: DT_STRING
    }
  }
  attr {
    key: "value"
    value {
      tensor {
        dtype: DT_STRING
        tensor_shape {
          dim {
            size: 17
          }
        }
        string_val: "global_step"
        string_val: "dnn/input_from_feature_columns/property_type_embedding/weights/part_0"
        string_val: "dnn/hiddenlayer_0/weights/part_0"
        string_val: "dnn/hiddenlayer_0/biases/part_0"
        string_val: "dnn/hiddenlayer_1/weights/part_0"
        string_val: "dnn/hiddenlayer_1/biases/part_0"
        string_val: "dnn/logits/weights/part_0"
        string_val: "dnn/logits/biases/part_0"
        string_val: "centered_bias_weight"
        string_val: "centered_bias_weight/Adagrad"
        string_val: "dnn/input_from_feature_columns/property_type_embedding/weights/part_0/ProximalAdagrad"
        string_val: "dnn/hiddenlayer_0/weights/part_0/ProximalAdagrad"
        string_val: "dnn/hiddenlayer_0/biases/part_0/ProximalAdagrad"
        string_val: "dnn/hiddenlayer_1/weights/part_0/ProximalAdagrad"
        string_val: "dnn/hiddenlayer_1/biases/part_0/ProximalAdagrad"
        string_val: "dnn/logits/weights/part_0/ProximalAdagrad"
        string_val: "dnn/logits/biases/part_0/ProximalAdagrad"
      }
    }
  }
}
node {
  name: "report_uninitialized_variables/boolean_mask/Shape"
  op: "Const"
  attr {
    key: "_output_shapes"
    value {
      list {
        shape {
          dim {
            size: 1
          }
        }
      }
    }
  }
  attr {
    key: "dtype"
    value {
      type: DT_INT32
    }
  }
  attr {
    key: "value"
    value {
      tensor {
        dtype: DT_INT32
        tensor_shape {
          dim {
            size: 1
          }
        }
        int_val: 17
      }
    }
  }
}
node {
  name: "report_uninitialized_variables/boolean_mask/strided_slice/pack"
  op: "Const"
  attr {
    key: "_output_shapes"
    value {
      list {
        shape {
          dim {
            size: 1
          }
        }
      }
    }
  }
  attr {
    key: "dtype"
    value {
      type: DT_INT32
    }
  }
  attr {
    key: "value"
    value {
      tensor {
        dtype: DT_INT32
        tensor_shape {
          dim {
            size: 1
          }
        }
        int_val: 1
      }
    }
  }
}
node {
  name: "report_uninitialized_variables/boolean_mask/strided_slice/pack_1"
  op: "Const"
  attr {
    key: "_output_shapes"
    value {
      list {
        shape {
          dim {
            size: 1
          }
        }
      }
    }
  }
  attr {
    key: "dtype"
    value {
      type: DT_INT32
    }
  }
  attr {
    key: "value"
    value {
      tensor {
        dtype: DT_INT32
        tensor_shape {
          dim {
            size: 1
          }
        }
        int_val: 0
      }
    }
  }
}
node {
  name: "report_uninitialized_variables/boolean_mask/strided_slice/pack_2"
  op: "Const"
  attr {
    key: "_output_shapes"
    value {
      list {
        shape {
          dim {
            size: 1
          }
        }
      }
    }
  }
  attr {
    key: "dtype"
    value {
      type: DT_INT32
    }
  }
  attr {
    key: "value"
    value {
      tensor {
        dtype: DT_INT32
        tensor_shape {
          dim {
            size: 1
          }
        }
        int_val: 1
      }
    }
  }
}
node {
  name: "report_uninitialized_variables/boolean_mask/strided_slice"
  op: "StridedSlice"
  input: "report_uninitialized_variables/boolean_mask/Shape"
  input: "report_uninitialized_variables/boolean_mask/strided_slice/pack"
  input: "report_uninitialized_variables/boolean_mask/strided_slice/pack_1"
  input: "report_uninitialized_variables/boolean_mask/strided_slice/pack_2"
  attr {
    key: "Index"
    value {
      type: DT_INT32
    }
  }
  attr {
    key: "T"
    value {
      type: DT_INT32
    }
  }
  attr {
    key: "_output_shapes"
    value {
      list {
        shape {
          dim {
          }
        }
      }
    }
  }
  attr {
    key: "begin_mask"
    value {
      i: 0
    }
  }
  attr {
    key: "ellipsis_mask"
    value {
      i: 0
    }
  }
  attr {
    key: "end_mask"
    value {
      i: 1
    }
  }
  attr {
    key: "new_axis_mask"
    value {
      i: 0
    }
  }
  attr {
    key: "shrink_axis_mask"
    value {
      i: 0
    }
  }
}
node {
  name: "report_uninitialized_variables/boolean_mask/concat/concat_dim"
  op: "Const"
  attr {
    key: "_output_shapes"
    value {
      list {
        shape {
        }
      }
    }
  }
  attr {
    key: "dtype"
    value {
      type: DT_INT32
    }
  }
  attr {
    key: "value"
    value {
      tensor {
        dtype: DT_INT32
        tensor_shape {
        }
        int_val: 0
      }
    }
  }
}
node {
  name: "report_uninitialized_variables/boolean_mask/concat/values_0"
  op: "Const"
  attr {
    key: "_output_shapes"
    value {
      list {
        shape {
          dim {
            size: 1
          }
        }
      }
    }
  }
  attr {
    key: "dtype"
    value {
      type: DT_INT32
    }
  }
  attr {
    key: "value"
    value {
      tensor {
        dtype: DT_INT32
        tensor_shape {
          dim {
            size: 1
          }
        }
        int_val: -1
      }
    }
  }
}
node {
  name: "report_uninitialized_variables/boolean_mask/concat"
  op: "Concat"
  input: "report_uninitialized_variables/boolean_mask/concat/concat_dim"
  input: "report_uninitialized_variables/boolean_mask/concat/values_0"
  input: "report_uninitialized_variables/boolean_mask/strided_slice"
  attr {
    key: "N"
    value {
      i: 2
    }
  }
  attr {
    key: "T"
    value {
      type: DT_INT32
    }
  }
  attr {
    key: "_output_shapes"
    value {
      list {
        shape {
          dim {
            size: 1
          }
        }
      }
    }
  }
}
node {
  name: "report_uninitialized_variables/boolean_mask/Reshape"
  op: "Reshape"
  input: "report_uninitialized_variables/Const"
  input: "report_uninitialized_variables/boolean_mask/concat"
  attr {
    key: "T"
    value {
      type: DT_STRING
    }
  }
  attr {
    key: "Tshape"
    value {
      type: DT_INT32
    }
  }
  attr {
    key: "_output_shapes"
    value {
      list {
        shape {
          dim {
            size: 17
          }
        }
      }
    }
  }
}
node {
  name: "report_uninitialized_variables/boolean_mask/Reshape_1/shape"
  op: "Const"
  attr {
    key: "_output_shapes"
    value {
      list {
        shape {
          dim {
            size: 1
          }
        }
      }
    }
  }
  attr {
    key: "dtype"
    value {
      type: DT_INT32
    }
  }
  attr {
    key: "value"
    value {
      tensor {
        dtype: DT_INT32
        tensor_shape {
          dim {
            size: 1
          }
        }
        int_val: -1
      }
    }
  }
}
node {
  name: "report_uninitialized_variables/boolean_mask/Reshape_1"
  op: "Reshape"
  input: "report_uninitialized_variables/LogicalNot"
  input: "report_uninitialized_variables/boolean_mask/Reshape_1/shape"
  attr {
    key: "T"
    value {
      type: DT_BOOL
    }
  }
  attr {
    key: "Tshape"
    value {
      type: DT_INT32
    }
  }
  attr {
    key: "_output_shapes"
    value {
      list {
        shape {
          dim {
            size: 17
          }
        }
      }
    }
  }
}
node {
  name: "report_uninitialized_variables/boolean_mask/Where"
  op: "Where"
  input: "report_uninitialized_variables/boolean_mask/Reshape_1"
  attr {
    key: "_output_shapes"
    value {
      list {
        shape {
          dim {
            size: -1
          }
          dim {
            size: 1
          }
        }
      }
    }
  }
}
node {
  name: "report_uninitialized_variables/boolean_mask/Squeeze"
  op: "Squeeze"
  input: "report_uninitialized_variables/boolean_mask/Where"
  attr {
    key: "T"
    value {
      type: DT_INT64
    }
  }
  attr {
    key: "_output_shapes"
    value {
      list {
        shape {
          dim {
            size: -1
          }
        }
      }
    }
  }
  attr {
    key: "squeeze_dims"
    value {
      list {
        i: 1
      }
    }
  }
}
node {
  name: "report_uninitialized_variables/boolean_mask/Gather"
  op: "Gather"
  input: "report_uninitialized_variables/boolean_mask/Reshape"
  input: "report_uninitialized_variables/boolean_mask/Squeeze"
  attr {
    key: "Tindices"
    value {
      type: DT_INT64
    }
  }
  attr {
    key: "Tparams"
    value {
      type: DT_STRING
    }
  }
  attr {
    key: "_output_shapes"
    value {
      list {
        shape {
          dim {
            size: -1
          }
        }
      }
    }
  }
  attr {
    key: "validate_indices"
    value {
      b: true
    }
  }
}
node {
  name: "init_1"
  op: "NoOp"
}
node {
  name: "init_all_tables"
  op: "NoOp"
  input: "^dnn/input_from_feature_columns/input_from_feature_columns/property_type_embedding/lookup/table_init"
}
node {
  name: "group_deps"
  op: "NoOp"
  input: "^init_1"
  input: "^init_all_tables"
}
node {
  name: "MergeSummary/MergeSummary"
  op: "MergeSummary"
  input: "ScalarSummary"
  input: "HistogramSummary"
  input: "ScalarSummary_1"
  input: "HistogramSummary_1"
  input: "ScalarSummary_2"
  input: "HistogramSummary_2"
  input: "ScalarSummary_3"
  input: "ScalarSummary_4"
  attr {
    key: "N"
    value {
      i: 8
    }
  }
  attr {
    key: "_output_shapes"
    value {
      list {
        shape {
        }
      }
    }
  }
}
node {
  name: "save/Const"
  op: "Const"
  attr {
    key: "_output_shapes"
    value {
      list {
        shape {
        }
      }
    }
  }
  attr {
    key: "dtype"
    value {
      type: DT_STRING
    }
  }
  attr {
    key: "value"
    value {
      tensor {
        dtype: DT_STRING
        tensor_shape {
        }
        string_val: "model"
      }
    }
  }
}
node {
  name: "save/num_shards"
  op: "Const"
  attr {
    key: "_output_shapes"
    value {
      list {
        shape {
        }
      }
    }
  }
  attr {
    key: "dtype"
    value {
      type: DT_INT32
    }
  }
  attr {
    key: "value"
    value {
      tensor {
        dtype: DT_INT32
        tensor_shape {
        }
        int_val: 1
      }
    }
  }
}
node {
  name: "save/ShardedFilename/shard"
  op: "Const"
  attr {
    key: "_output_shapes"
    value {
      list {
        shape {
        }
      }
    }
  }
  attr {
    key: "dtype"
    value {
      type: DT_INT32
    }
  }
  attr {
    key: "value"
    value {
      tensor {
        dtype: DT_INT32
        tensor_shape {
        }
        int_val: 0
      }
    }
  }
}
node {
  name: "save/ShardedFilename"
  op: "ShardedFilename"
  input: "save/Const"
  input: "save/ShardedFilename/shard"
  input: "save/num_shards"
  attr {
    key: "_output_shapes"
    value {
      list {
        shape {
        }
      }
    }
  }
}
node {
  name: "save/save/tensor_names"
  op: "Const"
  attr {
    key: "_output_shapes"
    value {
      list {
        shape {
          dim {
            size: 17
          }
        }
      }
    }
  }
  attr {
    key: "dtype"
    value {
      type: DT_STRING
    }
  }
  attr {
    key: "value"
    value {
      tensor {
        dtype: DT_STRING
        tensor_shape {
          dim {
            size: 17
          }
        }
        string_val: "centered_bias_weight"
        string_val: "centered_bias_weight/Adagrad"
        string_val: "dnn/hiddenlayer_0/biases"
        string_val: "dnn/hiddenlayer_0/biases/ProximalAdagrad"
        string_val: "dnn/hiddenlayer_0/weights"
        string_val: "dnn/hiddenlayer_0/weights/ProximalAdagrad"
        string_val: "dnn/hiddenlayer_1/biases"
        string_val: "dnn/hiddenlayer_1/biases/ProximalAdagrad"
        string_val: "dnn/hiddenlayer_1/weights"
        string_val: "dnn/hiddenlayer_1/weights/ProximalAdagrad"
        string_val: "dnn/input_from_feature_columns/property_type_embedding/weights"
        string_val: "dnn/input_from_feature_columns/property_type_embedding/weights/ProximalAdagrad"
        string_val: "dnn/logits/biases"
        string_val: "dnn/logits/biases/ProximalAdagrad"
        string_val: "dnn/logits/weights"
        string_val: "dnn/logits/weights/ProximalAdagrad"
        string_val: "global_step"
      }
    }
  }
}
node {
  name: "save/save/shapes_and_slices"
  op: "Const"
  attr {
    key: "_output_shapes"
    value {
      list {
        shape {
          dim {
            size: 17
          }
        }
      }
    }
  }
  attr {
    key: "dtype"
    value {
      type: DT_STRING
    }
  }
  attr {
    key: "value"
    value {
      tensor {
        dtype: DT_STRING
        tensor_shape {
          dim {
            size: 17
          }
        }
        string_val: ""
        string_val: ""
        string_val: "10 0,10"
        string_val: "10 0,10"
        string_val: "1043 10 0,1043:0,10"
        string_val: "1043 10 0,1043:0,10"
        string_val: "10 0,10"
        string_val: "10 0,10"
        string_val: "10 10 0,10:0,10"
        string_val: "10 10 0,10:0,10"
        string_val: "6 10 0,6:0,10"
        string_val: "6 10 0,6:0,10"
        string_val: "1 0,1"
        string_val: "1 0,1"
        string_val: "10 1 0,10:0,1"
        string_val: "10 1 0,10:0,1"
        string_val: ""
      }
    }
  }
}
node {
  name: "save/save"
  op: "SaveSlices"
  input: "save/ShardedFilename"
  input: "save/save/tensor_names"
  input: "save/save/shapes_and_slices"
  input: "centered_bias_weight"
  input: "centered_bias_weight/Adagrad"
  input: "dnn/hiddenlayer_0/biases/part_0/read"
  input: "dnn/hiddenlayer_0/biases/part_0/ProximalAdagrad/read"
  input: "dnn/hiddenlayer_0/weights/part_0/read"
  input: "dnn/hiddenlayer_0/weights/part_0/ProximalAdagrad/read"
  input: "dnn/hiddenlayer_1/biases/part_0/read"
  input: "dnn/hiddenlayer_1/biases/part_0/ProximalAdagrad/read"
  input: "dnn/hiddenlayer_1/weights/part_0/read"
  input: "dnn/hiddenlayer_1/weights/part_0/ProximalAdagrad/read"
  input: "dnn/input_from_feature_columns/property_type_embedding/weights/part_0/read"
  input: "dnn/input_from_feature_columns/property_type_embedding/weights/part_0/ProximalAdagrad/read"
  input: "dnn/logits/biases/part_0/read"
  input: "dnn/logits/biases/part_0/ProximalAdagrad/read"
  input: "dnn/logits/weights/part_0/read"
  input: "dnn/logits/weights/part_0/ProximalAdagrad/read"
  input: "global_step"
  attr {
    key: "T"
    value {
      list {
        type: DT_FLOAT
        type: DT_FLOAT
        type: DT_FLOAT
        type: DT_FLOAT
        type: DT_FLOAT
        type: DT_FLOAT
        type: DT_FLOAT
        type: DT_FLOAT
        type: DT_FLOAT
        type: DT_FLOAT
        type: DT_FLOAT
        type: DT_FLOAT
        type: DT_FLOAT
        type: DT_FLOAT
        type: DT_FLOAT
        type: DT_FLOAT
        type: DT_INT64
      }
    }
  }
}
node {
  name: "save/control_dependency"
  op: "Identity"
  input: "save/ShardedFilename"
  input: "^save/save"
  attr {
    key: "T"
    value {
      type: DT_STRING
    }
  }
  attr {
    key: "_class"
    value {
      list {
        s: "loc:@save/ShardedFilename"
      }
    }
  }
  attr {
    key: "_output_shapes"
    value {
      list {
        shape {
        }
      }
    }
  }
}
node {
  name: "save/ShardedFilespec"
  op: "ShardedFilespec"
  input: "save/Const"
  input: "save/num_shards"
  input: "^save/control_dependency"
  attr {
    key: "_output_shapes"
    value {
      list {
        shape {
        }
      }
    }
  }
}
node {
  name: "save/restore_slice/tensor_name"
  op: "Const"
  attr {
    key: "_output_shapes"
    value {
      list {
        shape {
        }
      }
    }
  }
  attr {
    key: "dtype"
    value {
      type: DT_STRING
    }
  }
  attr {
    key: "value"
    value {
      tensor {
        dtype: DT_STRING
        tensor_shape {
        }
        string_val: "centered_bias_weight"
      }
    }
  }
}
node {
  name: "save/restore_slice/shape_and_slice"
  op: "Const"
  attr {
    key: "_output_shapes"
    value {
      list {
        shape {
        }
      }
    }
  }
  attr {
    key: "dtype"
    value {
      type: DT_STRING
    }
  }
  attr {
    key: "value"
    value {
      tensor {
        dtype: DT_STRING
        tensor_shape {
        }
        string_val: ""
      }
    }
  }
}
node {
  name: "save/restore_slice"
  op: "RestoreSlice"
  input: "save/Const"
  input: "save/restore_slice/tensor_name"
  input: "save/restore_slice/shape_and_slice"
  attr {
    key: "_output_shapes"
    value {
      list {
        shape {
          unknown_rank: true
        }
      }
    }
  }
  attr {
    key: "dt"
    value {
      type: DT_FLOAT
    }
  }
  attr {
    key: "preferred_shard"
    value {
      i: 0
    }
  }
}
node {
  name: "save/Assign"
  op: "Assign"
  input: "centered_bias_weight"
  input: "save/restore_slice"
  attr {
    key: "T"
    value {
      type: DT_FLOAT
    }
  }
  attr {
    key: "_class"
    value {
      list {
        s: "loc:@centered_bias_weight"
      }
    }
  }
  attr {
    key: "_output_shapes"
    value {
      list {
        shape {
          dim {
            size: 1
          }
        }
      }
    }
  }
  attr {
    key: "use_locking"
    value {
      b: true
    }
  }
  attr {
    key: "validate_shape"
    value {
      b: true
    }
  }
}
node {
  name: "save/restore_slice_1/tensor_name"
  op: "Const"
  attr {
    key: "_output_shapes"
    value {
      list {
        shape {
        }
      }
    }
  }
  attr {
    key: "dtype"
    value {
      type: DT_STRING
    }
  }
  attr {
    key: "value"
    value {
      tensor {
        dtype: DT_STRING
        tensor_shape {
        }
        string_val: "centered_bias_weight/Adagrad"
      }
    }
  }
}
node {
  name: "save/restore_slice_1/shape_and_slice"
  op: "Const"
  attr {
    key: "_output_shapes"
    value {
      list {
        shape {
        }
      }
    }
  }
  attr {
    key: "dtype"
    value {
      type: DT_STRING
    }
  }
  attr {
    key: "value"
    value {
      tensor {
        dtype: DT_STRING
        tensor_shape {
        }
        string_val: ""
      }
    }
  }
}
node {
  name: "save/restore_slice_1"
  op: "RestoreSlice"
  input: "save/Const"
  input: "save/restore_slice_1/tensor_name"
  input: "save/restore_slice_1/shape_and_slice"
  attr {
    key: "_output_shapes"
    value {
      list {
        shape {
          unknown_rank: true
        }
      }
    }
  }
  attr {
    key: "dt"
    value {
      type: DT_FLOAT
    }
  }
  attr {
    key: "preferred_shard"
    value {
      i: 0
    }
  }
}
node {
  name: "save/Assign_1"
  op: "Assign"
  input: "centered_bias_weight/Adagrad"
  input: "save/restore_slice_1"
  attr {
    key: "T"
    value {
      type: DT_FLOAT
    }
  }
  attr {
    key: "_class"
    value {
      list {
        s: "loc:@centered_bias_weight"
      }
    }
  }
  attr {
    key: "_output_shapes"
    value {
      list {
        shape {
          dim {
            size: 1
          }
        }
      }
    }
  }
  attr {
    key: "use_locking"
    value {
      b: true
    }
  }
  attr {
    key: "validate_shape"
    value {
      b: true
    }
  }
}
node {
  name: "save/restore_slice_2/tensor_name"
  op: "Const"
  attr {
    key: "_output_shapes"
    value {
      list {
        shape {
        }
      }
    }
  }
  attr {
    key: "dtype"
    value {
      type: DT_STRING
    }
  }
  attr {
    key: "value"
    value {
      tensor {
        dtype: DT_STRING
        tensor_shape {
        }
        string_val: "dnn/hiddenlayer_0/biases"
      }
    }
  }
}
node {
  name: "save/restore_slice_2/shape_and_slice"
  op: "Const"
  attr {
    key: "_output_shapes"
    value {
      list {
        shape {
        }
      }
    }
  }
  attr {
    key: "dtype"
    value {
      type: DT_STRING
    }
  }
  attr {
    key: "value"
    value {
      tensor {
        dtype: DT_STRING
        tensor_shape {
        }
        string_val: "10 0,10"
      }
    }
  }
}
node {
  name: "save/restore_slice_2"
  op: "RestoreSlice"
  input: "save/Const"
  input: "save/restore_slice_2/tensor_name"
  input: "save/restore_slice_2/shape_and_slice"
  attr {
    key: "_output_shapes"
    value {
      list {
        shape {
          unknown_rank: true
        }
      }
    }
  }
  attr {
    key: "dt"
    value {
      type: DT_FLOAT
    }
  }
  attr {
    key: "preferred_shard"
    value {
      i: 0
    }
  }
}
node {
  name: "save/Assign_2"
  op: "Assign"
  input: "dnn/hiddenlayer_0/biases/part_0"
  input: "save/restore_slice_2"
  attr {
    key: "T"
    value {
      type: DT_FLOAT
    }
  }
  attr {
    key: "_class"
    value {
      list {
        s: "loc:@dnn/hiddenlayer_0/biases/part_0"
      }
    }
  }
  attr {
    key: "_output_shapes"
    value {
      list {
        shape {
          dim {
            size: 10
          }
        }
      }
    }
  }
  attr {
    key: "use_locking"
    value {
      b: true
    }
  }
  attr {
    key: "validate_shape"
    value {
      b: true
    }
  }
}
node {
  name: "save/restore_slice_3/tensor_name"
  op: "Const"
  attr {
    key: "_output_shapes"
    value {
      list {
        shape {
        }
      }
    }
  }
  attr {
    key: "dtype"
    value {
      type: DT_STRING
    }
  }
  attr {
    key: "value"
    value {
      tensor {
        dtype: DT_STRING
        tensor_shape {
        }
        string_val: "dnn/hiddenlayer_0/biases/ProximalAdagrad"
      }
    }
  }
}
node {
  name: "save/restore_slice_3/shape_and_slice"
  op: "Const"
  attr {
    key: "_output_shapes"
    value {
      list {
        shape {
        }
      }
    }
  }
  attr {
    key: "dtype"
    value {
      type: DT_STRING
    }
  }
  attr {
    key: "value"
    value {
      tensor {
        dtype: DT_STRING
        tensor_shape {
        }
        string_val: "10 0,10"
      }
    }
  }
}
node {
  name: "save/restore_slice_3"
  op: "RestoreSlice"
  input: "save/Const"
  input: "save/restore_slice_3/tensor_name"
  input: "save/restore_slice_3/shape_and_slice"
  attr {
    key: "_output_shapes"
    value {
      list {
        shape {
          unknown_rank: true
        }
      }
    }
  }
  attr {
    key: "dt"
    value {
      type: DT_FLOAT
    }
  }
  attr {
    key: "preferred_shard"
    value {
      i: 0
    }
  }
}
node {
  name: "save/Assign_3"
  op: "Assign"
  input: "dnn/hiddenlayer_0/biases/part_0/ProximalAdagrad"
  input: "save/restore_slice_3"
  attr {
    key: "T"
    value {
      type: DT_FLOAT
    }
  }
  attr {
    key: "_class"
    value {
      list {
        s: "loc:@dnn/hiddenlayer_0/biases/part_0"
      }
    }
  }
  attr {
    key: "_output_shapes"
    value {
      list {
        shape {
          dim {
            size: 10
          }
        }
      }
    }
  }
  attr {
    key: "use_locking"
    value {
      b: true
    }
  }
  attr {
    key: "validate_shape"
    value {
      b: true
    }
  }
}
node {
  name: "save/restore_slice_4/tensor_name"
  op: "Const"
  attr {
    key: "_output_shapes"
    value {
      list {
        shape {
        }
      }
    }
  }
  attr {
    key: "dtype"
    value {
      type: DT_STRING
    }
  }
  attr {
    key: "value"
    value {
      tensor {
        dtype: DT_STRING
        tensor_shape {
        }
        string_val: "dnn/hiddenlayer_0/weights"
      }
    }
  }
}
node {
  name: "save/restore_slice_4/shape_and_slice"
  op: "Const"
  attr {
    key: "_output_shapes"
    value {
      list {
        shape {
        }
      }
    }
  }
  attr {
    key: "dtype"
    value {
      type: DT_STRING
    }
  }
  attr {
    key: "value"
    value {
      tensor {
        dtype: DT_STRING
        tensor_shape {
        }
        string_val: "1043 10 0,1043:0,10"
      }
    }
  }
}
node {
  name: "save/restore_slice_4"
  op: "RestoreSlice"
  input: "save/Const"
  input: "save/restore_slice_4/tensor_name"
  input: "save/restore_slice_4/shape_and_slice"
  attr {
    key: "_output_shapes"
    value {
      list {
        shape {
          unknown_rank: true
        }
      }
    }
  }
  attr {
    key: "dt"
    value {
      type: DT_FLOAT
    }
  }
  attr {
    key: "preferred_shard"
    value {
      i: 0
    }
  }
}
node {
  name: "save/Assign_4"
  op: "Assign"
  input: "dnn/hiddenlayer_0/weights/part_0"
  input: "save/restore_slice_4"
  attr {
    key: "T"
    value {
      type: DT_FLOAT
    }
  }
  attr {
    key: "_class"
    value {
      list {
        s: "loc:@dnn/hiddenlayer_0/weights/part_0"
      }
    }
  }
  attr {
    key: "_output_shapes"
    value {
      list {
        shape {
          dim {
            size: 1043
          }
          dim {
            size: 10
          }
        }
      }
    }
  }
  attr {
    key: "use_locking"
    value {
      b: true
    }
  }
  attr {
    key: "validate_shape"
    value {
      b: true
    }
  }
}
node {
  name: "save/restore_slice_5/tensor_name"
  op: "Const"
  attr {
    key: "_output_shapes"
    value {
      list {
        shape {
        }
      }
    }
  }
  attr {
    key: "dtype"
    value {
      type: DT_STRING
    }
  }
  attr {
    key: "value"
    value {
      tensor {
        dtype: DT_STRING
        tensor_shape {
        }
        string_val: "dnn/hiddenlayer_0/weights/ProximalAdagrad"
      }
    }
  }
}
node {
  name: "save/restore_slice_5/shape_and_slice"
  op: "Const"
  attr {
    key: "_output_shapes"
    value {
      list {
        shape {
        }
      }
    }
  }
  attr {
    key: "dtype"
    value {
      type: DT_STRING
    }
  }
  attr {
    key: "value"
    value {
      tensor {
        dtype: DT_STRING
        tensor_shape {
        }
        string_val: "1043 10 0,1043:0,10"
      }
    }
  }
}
node {
  name: "save/restore_slice_5"
  op: "RestoreSlice"
  input: "save/Const"
  input: "save/restore_slice_5/tensor_name"
  input: "save/restore_slice_5/shape_and_slice"
  attr {
    key: "_output_shapes"
    value {
      list {
        shape {
          unknown_rank: true
        }
      }
    }
  }
  attr {
    key: "dt"
    value {
      type: DT_FLOAT
    }
  }
  attr {
    key: "preferred_shard"
    value {
      i: 0
    }
  }
}
node {
  name: "save/Assign_5"
  op: "Assign"
  input: "dnn/hiddenlayer_0/weights/part_0/ProximalAdagrad"
  input: "save/restore_slice_5"
  attr {
    key: "T"
    value {
      type: DT_FLOAT
    }
  }
  attr {
    key: "_class"
    value {
      list {
        s: "loc:@dnn/hiddenlayer_0/weights/part_0"
      }
    }
  }
  attr {
    key: "_output_shapes"
    value {
      list {
        shape {
          dim {
            size: 1043
          }
          dim {
            size: 10
          }
        }
      }
    }
  }
  attr {
    key: "use_locking"
    value {
      b: true
    }
  }
  attr {
    key: "validate_shape"
    value {
      b: true
    }
  }
}
node {
  name: "save/restore_slice_6/tensor_name"
  op: "Const"
  attr {
    key: "_output_shapes"
    value {
      list {
        shape {
        }
      }
    }
  }
  attr {
    key: "dtype"
    value {
      type: DT_STRING
    }
  }
  attr {
    key: "value"
    value {
      tensor {
        dtype: DT_STRING
        tensor_shape {
        }
        string_val: "dnn/hiddenlayer_1/biases"
      }
    }
  }
}
node {
  name: "save/restore_slice_6/shape_and_slice"
  op: "Const"
  attr {
    key: "_output_shapes"
    value {
      list {
        shape {
        }
      }
    }
  }
  attr {
    key: "dtype"
    value {
      type: DT_STRING
    }
  }
  attr {
    key: "value"
    value {
      tensor {
        dtype: DT_STRING
        tensor_shape {
        }
        string_val: "10 0,10"
      }
    }
  }
}
node {
  name: "save/restore_slice_6"
  op: "RestoreSlice"
  input: "save/Const"
  input: "save/restore_slice_6/tensor_name"
  input: "save/restore_slice_6/shape_and_slice"
  attr {
    key: "_output_shapes"
    value {
      list {
        shape {
          unknown_rank: true
        }
      }
    }
  }
  attr {
    key: "dt"
    value {
      type: DT_FLOAT
    }
  }
  attr {
    key: "preferred_shard"
    value {
      i: 0
    }
  }
}
node {
  name: "save/Assign_6"
  op: "Assign"
  input: "dnn/hiddenlayer_1/biases/part_0"
  input: "save/restore_slice_6"
  attr {
    key: "T"
    value {
      type: DT_FLOAT
    }
  }
  attr {
    key: "_class"
    value {
      list {
        s: "loc:@dnn/hiddenlayer_1/biases/part_0"
      }
    }
  }
  attr {
    key: "_output_shapes"
    value {
      list {
        shape {
          dim {
            size: 10
          }
        }
      }
    }
  }
  attr {
    key: "use_locking"
    value {
      b: true
    }
  }
  attr {
    key: "validate_shape"
    value {
      b: true
    }
  }
}
node {
  name: "save/restore_slice_7/tensor_name"
  op: "Const"
  attr {
    key: "_output_shapes"
    value {
      list {
        shape {
        }
      }
    }
  }
  attr {
    key: "dtype"
    value {
      type: DT_STRING
    }
  }
  attr {
    key: "value"
    value {
      tensor {
        dtype: DT_STRING
        tensor_shape {
        }
        string_val: "dnn/hiddenlayer_1/biases/ProximalAdagrad"
      }
    }
  }
}
node {
  name: "save/restore_slice_7/shape_and_slice"
  op: "Const"
  attr {
    key: "_output_shapes"
    value {
      list {
        shape {
        }
      }
    }
  }
  attr {
    key: "dtype"
    value {
      type: DT_STRING
    }
  }
  attr {
    key: "value"
    value {
      tensor {
        dtype: DT_STRING
        tensor_shape {
        }
        string_val: "10 0,10"
      }
    }
  }
}
node {
  name: "save/restore_slice_7"
  op: "RestoreSlice"
  input: "save/Const"
  input: "save/restore_slice_7/tensor_name"
  input: "save/restore_slice_7/shape_and_slice"
  attr {
    key: "_output_shapes"
    value {
      list {
        shape {
          unknown_rank: true
        }
      }
    }
  }
  attr {
    key: "dt"
    value {
      type: DT_FLOAT
    }
  }
  attr {
    key: "preferred_shard"
    value {
      i: 0
    }
  }
}
node {
  name: "save/Assign_7"
  op: "Assign"
  input: "dnn/hiddenlayer_1/biases/part_0/ProximalAdagrad"
  input: "save/restore_slice_7"
  attr {
    key: "T"
    value {
      type: DT_FLOAT
    }
  }
  attr {
    key: "_class"
    value {
      list {
        s: "loc:@dnn/hiddenlayer_1/biases/part_0"
      }
    }
  }
  attr {
    key: "_output_shapes"
    value {
      list {
        shape {
          dim {
            size: 10
          }
        }
      }
    }
  }
  attr {
    key: "use_locking"
    value {
      b: true
    }
  }
  attr {
    key: "validate_shape"
    value {
      b: true
    }
  }
}
node {
  name: "save/restore_slice_8/tensor_name"
  op: "Const"
  attr {
    key: "_output_shapes"
    value {
      list {
        shape {
        }
      }
    }
  }
  attr {
    key: "dtype"
    value {
      type: DT_STRING
    }
  }
  attr {
    key: "value"
    value {
      tensor {
        dtype: DT_STRING
        tensor_shape {
        }
        string_val: "dnn/hiddenlayer_1/weights"
      }
    }
  }
}
node {
  name: "save/restore_slice_8/shape_and_slice"
  op: "Const"
  attr {
    key: "_output_shapes"
    value {
      list {
        shape {
        }
      }
    }
  }
  attr {
    key: "dtype"
    value {
      type: DT_STRING
    }
  }
  attr {
    key: "value"
    value {
      tensor {
        dtype: DT_STRING
        tensor_shape {
        }
        string_val: "10 10 0,10:0,10"
      }
    }
  }
}
node {
  name: "save/restore_slice_8"
  op: "RestoreSlice"
  input: "save/Const"
  input: "save/restore_slice_8/tensor_name"
  input: "save/restore_slice_8/shape_and_slice"
  attr {
    key: "_output_shapes"
    value {
      list {
        shape {
          unknown_rank: true
        }
      }
    }
  }
  attr {
    key: "dt"
    value {
      type: DT_FLOAT
    }
  }
  attr {
    key: "preferred_shard"
    value {
      i: 0
    }
  }
}
node {
  name: "save/Assign_8"
  op: "Assign"
  input: "dnn/hiddenlayer_1/weights/part_0"
  input: "save/restore_slice_8"
  attr {
    key: "T"
    value {
      type: DT_FLOAT
    }
  }
  attr {
    key: "_class"
    value {
      list {
        s: "loc:@dnn/hiddenlayer_1/weights/part_0"
      }
    }
  }
  attr {
    key: "_output_shapes"
    value {
      list {
        shape {
          dim {
            size: 10
          }
          dim {
            size: 10
          }
        }
      }
    }
  }
  attr {
    key: "use_locking"
    value {
      b: true
    }
  }
  attr {
    key: "validate_shape"
    value {
      b: true
    }
  }
}
node {
  name: "save/restore_slice_9/tensor_name"
  op: "Const"
  attr {
    key: "_output_shapes"
    value {
      list {
        shape {
        }
      }
    }
  }
  attr {
    key: "dtype"
    value {
      type: DT_STRING
    }
  }
  attr {
    key: "value"
    value {
      tensor {
        dtype: DT_STRING
        tensor_shape {
        }
        string_val: "dnn/hiddenlayer_1/weights/ProximalAdagrad"
      }
    }
  }
}
node {
  name: "save/restore_slice_9/shape_and_slice"
  op: "Const"
  attr {
    key: "_output_shapes"
    value {
      list {
        shape {
        }
      }
    }
  }
  attr {
    key: "dtype"
    value {
      type: DT_STRING
    }
  }
  attr {
    key: "value"
    value {
      tensor {
        dtype: DT_STRING
        tensor_shape {
        }
        string_val: "10 10 0,10:0,10"
      }
    }
  }
}
node {
  name: "save/restore_slice_9"
  op: "RestoreSlice"
  input: "save/Const"
  input: "save/restore_slice_9/tensor_name"
  input: "save/restore_slice_9/shape_and_slice"
  attr {
    key: "_output_shapes"
    value {
      list {
        shape {
          unknown_rank: true
        }
      }
    }
  }
  attr {
    key: "dt"
    value {
      type: DT_FLOAT
    }
  }
  attr {
    key: "preferred_shard"
    value {
      i: 0
    }
  }
}
node {
  name: "save/Assign_9"
  op: "Assign"
  input: "dnn/hiddenlayer_1/weights/part_0/ProximalAdagrad"
  input: "save/restore_slice_9"
  attr {
    key: "T"
    value {
      type: DT_FLOAT
    }
  }
  attr {
    key: "_class"
    value {
      list {
        s: "loc:@dnn/hiddenlayer_1/weights/part_0"
      }
    }
  }
  attr {
    key: "_output_shapes"
    value {
      list {
        shape {
          dim {
            size: 10
          }
          dim {
            size: 10
          }
        }
      }
    }
  }
  attr {
    key: "use_locking"
    value {
      b: true
    }
  }
  attr {
    key: "validate_shape"
    value {
      b: true
    }
  }
}
node {
  name: "save/restore_slice_10/tensor_name"
  op: "Const"
  attr {
    key: "_output_shapes"
    value {
      list {
        shape {
        }
      }
    }
  }
  attr {
    key: "dtype"
    value {
      type: DT_STRING
    }
  }
  attr {
    key: "value"
    value {
      tensor {
        dtype: DT_STRING
        tensor_shape {
        }
        string_val: "dnn/input_from_feature_columns/property_type_embedding/weights"
      }
    }
  }
}
node {
  name: "save/restore_slice_10/shape_and_slice"
  op: "Const"
  attr {
    key: "_output_shapes"
    value {
      list {
        shape {
        }
      }
    }
  }
  attr {
    key: "dtype"
    value {
      type: DT_STRING
    }
  }
  attr {
    key: "value"
    value {
      tensor {
        dtype: DT_STRING
        tensor_shape {
        }
        string_val: "6 10 0,6:0,10"
      }
    }
  }
}
node {
  name: "save/restore_slice_10"
  op: "RestoreSlice"
  input: "save/Const"
  input: "save/restore_slice_10/tensor_name"
  input: "save/restore_slice_10/shape_and_slice"
  attr {
    key: "_output_shapes"
    value {
      list {
        shape {
          unknown_rank: true
        }
      }
    }
  }
  attr {
    key: "dt"
    value {
      type: DT_FLOAT
    }
  }
  attr {
    key: "preferred_shard"
    value {
      i: 0
    }
  }
}
node {
  name: "save/Assign_10"
  op: "Assign"
  input: "dnn/input_from_feature_columns/property_type_embedding/weights/part_0"
  input: "save/restore_slice_10"
  attr {
    key: "T"
    value {
      type: DT_FLOAT
    }
  }
  attr {
    key: "_class"
    value {
      list {
        s: "loc:@dnn/input_from_feature_columns/property_type_embedding/weights/part_0"
      }
    }
  }
  attr {
    key: "_output_shapes"
    value {
      list {
        shape {
          dim {
            size: 6
          }
          dim {
            size: 10
          }
        }
      }
    }
  }
  attr {
    key: "use_locking"
    value {
      b: true
    }
  }
  attr {
    key: "validate_shape"
    value {
      b: true
    }
  }
}
node {
  name: "save/restore_slice_11/tensor_name"
  op: "Const"
  attr {
    key: "_output_shapes"
    value {
      list {
        shape {
        }
      }
    }
  }
  attr {
    key: "dtype"
    value {
      type: DT_STRING
    }
  }
  attr {
    key: "value"
    value {
      tensor {
        dtype: DT_STRING
        tensor_shape {
        }
        string_val: "dnn/input_from_feature_columns/property_type_embedding/weights/ProximalAdagrad"
      }
    }
  }
}
node {
  name: "save/restore_slice_11/shape_and_slice"
  op: "Const"
  attr {
    key: "_output_shapes"
    value {
      list {
        shape {
        }
      }
    }
  }
  attr {
    key: "dtype"
    value {
      type: DT_STRING
    }
  }
  attr {
    key: "value"
    value {
      tensor {
        dtype: DT_STRING
        tensor_shape {
        }
        string_val: "6 10 0,6:0,10"
      }
    }
  }
}
node {
  name: "save/restore_slice_11"
  op: "RestoreSlice"
  input: "save/Const"
  input: "save/restore_slice_11/tensor_name"
  input: "save/restore_slice_11/shape_and_slice"
  attr {
    key: "_output_shapes"
    value {
      list {
        shape {
          unknown_rank: true
        }
      }
    }
  }
  attr {
    key: "dt"
    value {
      type: DT_FLOAT
    }
  }
  attr {
    key: "preferred_shard"
    value {
      i: 0
    }
  }
}
node {
  name: "save/Assign_11"
  op: "Assign"
  input: "dnn/input_from_feature_columns/property_type_embedding/weights/part_0/ProximalAdagrad"
  input: "save/restore_slice_11"
  attr {
    key: "T"
    value {
      type: DT_FLOAT
    }
  }
  attr {
    key: "_class"
    value {
      list {
        s: "loc:@dnn/input_from_feature_columns/property_type_embedding/weights/part_0"
      }
    }
  }
  attr {
    key: "_output_shapes"
    value {
      list {
        shape {
          dim {
            size: 6
          }
          dim {
            size: 10
          }
        }
      }
    }
  }
  attr {
    key: "use_locking"
    value {
      b: true
    }
  }
  attr {
    key: "validate_shape"
    value {
      b: true
    }
  }
}
node {
  name: "save/restore_slice_12/tensor_name"
  op: "Const"
  attr {
    key: "_output_shapes"
    value {
      list {
        shape {
        }
      }
    }
  }
  attr {
    key: "dtype"
    value {
      type: DT_STRING
    }
  }
  attr {
    key: "value"
    value {
      tensor {
        dtype: DT_STRING
        tensor_shape {
        }
        string_val: "dnn/logits/biases"
      }
    }
  }
}
node {
  name: "save/restore_slice_12/shape_and_slice"
  op: "Const"
  attr {
    key: "_output_shapes"
    value {
      list {
        shape {
        }
      }
    }
  }
  attr {
    key: "dtype"
    value {
      type: DT_STRING
    }
  }
  attr {
    key: "value"
    value {
      tensor {
        dtype: DT_STRING
        tensor_shape {
        }
        string_val: "1 0,1"
      }
    }
  }
}
node {
  name: "save/restore_slice_12"
  op: "RestoreSlice"
  input: "save/Const"
  input: "save/restore_slice_12/tensor_name"
  input: "save/restore_slice_12/shape_and_slice"
  attr {
    key: "_output_shapes"
    value {
      list {
        shape {
          unknown_rank: true
        }
      }
    }
  }
  attr {
    key: "dt"
    value {
      type: DT_FLOAT
    }
  }
  attr {
    key: "preferred_shard"
    value {
      i: 0
    }
  }
}
node {
  name: "save/Assign_12"
  op: "Assign"
  input: "dnn/logits/biases/part_0"
  input: "save/restore_slice_12"
  attr {
    key: "T"
    value {
      type: DT_FLOAT
    }
  }
  attr {
    key: "_class"
    value {
      list {
        s: "loc:@dnn/logits/biases/part_0"
      }
    }
  }
  attr {
    key: "_output_shapes"
    value {
      list {
        shape {
          dim {
            size: 1
          }
        }
      }
    }
  }
  attr {
    key: "use_locking"
    value {
      b: true
    }
  }
  attr {
    key: "validate_shape"
    value {
      b: true
    }
  }
}
node {
  name: "save/restore_slice_13/tensor_name"
  op: "Const"
  attr {
    key: "_output_shapes"
    value {
      list {
        shape {
        }
      }
    }
  }
  attr {
    key: "dtype"
    value {
      type: DT_STRING
    }
  }
  attr {
    key: "value"
    value {
      tensor {
        dtype: DT_STRING
        tensor_shape {
        }
        string_val: "dnn/logits/biases/ProximalAdagrad"
      }
    }
  }
}
node {
  name: "save/restore_slice_13/shape_and_slice"
  op: "Const"
  attr {
    key: "_output_shapes"
    value {
      list {
        shape {
        }
      }
    }
  }
  attr {
    key: "dtype"
    value {
      type: DT_STRING
    }
  }
  attr {
    key: "value"
    value {
      tensor {
        dtype: DT_STRING
        tensor_shape {
        }
        string_val: "1 0,1"
      }
    }
  }
}
node {
  name: "save/restore_slice_13"
  op: "RestoreSlice"
  input: "save/Const"
  input: "save/restore_slice_13/tensor_name"
  input: "save/restore_slice_13/shape_and_slice"
  attr {
    key: "_output_shapes"
    value {
      list {
        shape {
          unknown_rank: true
        }
      }
    }
  }
  attr {
    key: "dt"
    value {
      type: DT_FLOAT
    }
  }
  attr {
    key: "preferred_shard"
    value {
      i: 0
    }
  }
}
node {
  name: "save/Assign_13"
  op: "Assign"
  input: "dnn/logits/biases/part_0/ProximalAdagrad"
  input: "save/restore_slice_13"
  attr {
    key: "T"
    value {
      type: DT_FLOAT
    }
  }
  attr {
    key: "_class"
    value {
      list {
        s: "loc:@dnn/logits/biases/part_0"
      }
    }
  }
  attr {
    key: "_output_shapes"
    value {
      list {
        shape {
          dim {
            size: 1
          }
        }
      }
    }
  }
  attr {
    key: "use_locking"
    value {
      b: true
    }
  }
  attr {
    key: "validate_shape"
    value {
      b: true
    }
  }
}
node {
  name: "save/restore_slice_14/tensor_name"
  op: "Const"
  attr {
    key: "_output_shapes"
    value {
      list {
        shape {
        }
      }
    }
  }
  attr {
    key: "dtype"
    value {
      type: DT_STRING
    }
  }
  attr {
    key: "value"
    value {
      tensor {
        dtype: DT_STRING
        tensor_shape {
        }
        string_val: "dnn/logits/weights"
      }
    }
  }
}
node {
  name: "save/restore_slice_14/shape_and_slice"
  op: "Const"
  attr {
    key: "_output_shapes"
    value {
      list {
        shape {
        }
      }
    }
  }
  attr {
    key: "dtype"
    value {
      type: DT_STRING
    }
  }
  attr {
    key: "value"
    value {
      tensor {
        dtype: DT_STRING
        tensor_shape {
        }
        string_val: "10 1 0,10:0,1"
      }
    }
  }
}
node {
  name: "save/restore_slice_14"
  op: "RestoreSlice"
  input: "save/Const"
  input: "save/restore_slice_14/tensor_name"
  input: "save/restore_slice_14/shape_and_slice"
  attr {
    key: "_output_shapes"
    value {
      list {
        shape {
          unknown_rank: true
        }
      }
    }
  }
  attr {
    key: "dt"
    value {
      type: DT_FLOAT
    }
  }
  attr {
    key: "preferred_shard"
    value {
      i: 0
    }
  }
}
node {
  name: "save/Assign_14"
  op: "Assign"
  input: "dnn/logits/weights/part_0"
  input: "save/restore_slice_14"
  attr {
    key: "T"
    value {
      type: DT_FLOAT
    }
  }
  attr {
    key: "_class"
    value {
      list {
        s: "loc:@dnn/logits/weights/part_0"
      }
    }
  }
  attr {
    key: "_output_shapes"
    value {
      list {
        shape {
          dim {
            size: 10
          }
          dim {
            size: 1
          }
        }
      }
    }
  }
  attr {
    key: "use_locking"
    value {
      b: true
    }
  }
  attr {
    key: "validate_shape"
    value {
      b: true
    }
  }
}
node {
  name: "save/restore_slice_15/tensor_name"
  op: "Const"
  attr {
    key: "_output_shapes"
    value {
      list {
        shape {
        }
      }
    }
  }
  attr {
    key: "dtype"
    value {
      type: DT_STRING
    }
  }
  attr {
    key: "value"
    value {
      tensor {
        dtype: DT_STRING
        tensor_shape {
        }
        string_val: "dnn/logits/weights/ProximalAdagrad"
      }
    }
  }
}
node {
  name: "save/restore_slice_15/shape_and_slice"
  op: "Const"
  attr {
    key: "_output_shapes"
    value {
      list {
        shape {
        }
      }
    }
  }
  attr {
    key: "dtype"
    value {
      type: DT_STRING
    }
  }
  attr {
    key: "value"
    value {
      tensor {
        dtype: DT_STRING
        tensor_shape {
        }
        string_val: "10 1 0,10:0,1"
      }
    }
  }
}
node {
  name: "save/restore_slice_15"
  op: "RestoreSlice"
  input: "save/Const"
  input: "save/restore_slice_15/tensor_name"
  input: "save/restore_slice_15/shape_and_slice"
  attr {
    key: "_output_shapes"
    value {
      list {
        shape {
          unknown_rank: true
        }
      }
    }
  }
  attr {
    key: "dt"
    value {
      type: DT_FLOAT
    }
  }
  attr {
    key: "preferred_shard"
    value {
      i: 0
    }
  }
}
node {
  name: "save/Assign_15"
  op: "Assign"
  input: "dnn/logits/weights/part_0/ProximalAdagrad"
  input: "save/restore_slice_15"
  attr {
    key: "T"
    value {
      type: DT_FLOAT
    }
  }
  attr {
    key: "_class"
    value {
      list {
        s: "loc:@dnn/logits/weights/part_0"
      }
    }
  }
  attr {
    key: "_output_shapes"
    value {
      list {
        shape {
          dim {
            size: 10
          }
          dim {
            size: 1
          }
        }
      }
    }
  }
  attr {
    key: "use_locking"
    value {
      b: true
    }
  }
  attr {
    key: "validate_shape"
    value {
      b: true
    }
  }
}
node {
  name: "save/restore_slice_16/tensor_name"
  op: "Const"
  attr {
    key: "_output_shapes"
    value {
      list {
        shape {
        }
      }
    }
  }
  attr {
    key: "dtype"
    value {
      type: DT_STRING
    }
  }
  attr {
    key: "value"
    value {
      tensor {
        dtype: DT_STRING
        tensor_shape {
        }
        string_val: "global_step"
      }
    }
  }
}
node {
  name: "save/restore_slice_16/shape_and_slice"
  op: "Const"
  attr {
    key: "_output_shapes"
    value {
      list {
        shape {
        }
      }
    }
  }
  attr {
    key: "dtype"
    value {
      type: DT_STRING
    }
  }
  attr {
    key: "value"
    value {
      tensor {
        dtype: DT_STRING
        tensor_shape {
        }
        string_val: ""
      }
    }
  }
}
node {
  name: "save/restore_slice_16"
  op: "RestoreSlice"
  input: "save/Const"
  input: "save/restore_slice_16/tensor_name"
  input: "save/restore_slice_16/shape_and_slice"
  attr {
    key: "_output_shapes"
    value {
      list {
        shape {
          unknown_rank: true
        }
      }
    }
  }
  attr {
    key: "dt"
    value {
      type: DT_INT64
    }
  }
  attr {
    key: "preferred_shard"
    value {
      i: 0
    }
  }
}
node {
  name: "save/Assign_16"
  op: "Assign"
  input: "global_step"
  input: "save/restore_slice_16"
  attr {
    key: "T"
    value {
      type: DT_INT64
    }
  }
  attr {
    key: "_class"
    value {
      list {
        s: "loc:@global_step"
      }
    }
  }
  attr {
    key: "_output_shapes"
    value {
      list {
        shape {
        }
      }
    }
  }
  attr {
    key: "use_locking"
    value {
      b: true
    }
  }
  attr {
    key: "validate_shape"
    value {
      b: true
    }
  }
}
node {
  name: "save/restore_shard"
  op: "NoOp"
  input: "^save/Assign"
  input: "^save/Assign_1"
  input: "^save/Assign_2"
  input: "^save/Assign_3"
  input: "^save/Assign_4"
  input: "^save/Assign_5"
  input: "^save/Assign_6"
  input: "^save/Assign_7"
  input: "^save/Assign_8"
  input: "^save/Assign_9"
  input: "^save/Assign_10"
  input: "^save/Assign_11"
  input: "^save/Assign_12"
  input: "^save/Assign_13"
  input: "^save/Assign_14"
  input: "^save/Assign_15"
  input: "^save/Assign_16"
}
node {
  name: "save/restore_all"
  op: "NoOp"
  input: "^save/restore_shard"
}
versions {
  producer: 15
}
